RL/TicTacToe/pretrained/alphazero_model_discount.pth (torch_old, 30554 bytes, 36 tensors)

resnet.layers.0.weight f4 [8, 3, 3, 3]
000000 9d ff db bd ab bf 78 3e 1e f0 20 bc 36 48 c5 bd
       -0.10742114 0.24291866 -0.009822873 -0.09632914
000010 b9 0e 8b bd bb 41 88 bd 76 2d 91 be bf 50 73 be
       -0.067899175 -0.06653162 -0.28354996 -0.23761271
000020 93 0f b5 3e 2e c9 09 3e d9 22 29 3d ce f2 76 bc
       0.35363445 0.1345565 0.041293 -0.015072538
000030 18 71 2c be 4e b6 db 3d 61 7f a1 3e 33 07 c2 3e
       -0.16840017 0.10728131 0.31542495 0.37896118
000040 7f f1 44 be 36 25 9b bd f1 42 b2 bd a0 a9 f7 3d
       -0.19232748 -0.07575457 -0.08704174 0.120929
000050 20 c6 97 3e 57 35 21 3d 37 f7 bd 3e 47 32 b1 3e
       0.29643345 0.03935751 0.37102672 0.3460867
000060 a0 ed 19 3e 88 30 94 bd 53 e5 2c 3e 87 8e ad 3e
       0.15032053 -0.07235819 0.16884355 0.33897802
000070 c0 0b 3d be b4 22 a8 3e 55 fc de 3c fa 64 55 3e
       -0.18461514 0.32838976 0.02721993 0.20839301
000080 34 65 81 be b8 ae 40 3e 86 f4 94 be 18 07 49 3e
       -0.25272524 0.1881665 -0.29092807 0.19631612
000090 23 9b c8 bc f8 6d 37 3e fe e3 22 be 0a 30 5d 3c
       -0.024488037 0.17913043 -0.15907285 0.013500223
0000a0 b2 23 f8 3d 96 bf 0c 3e c8 79 2e 3e e1 b1 2f 3e
       0.12116183 0.13744959 0.17038643 0.17157699
0000b0 19 cd be be 24 90 80 3e 42 40 f3 3e 95 57 d5 3e
       -0.37265852 0.2510997 0.47509962 0.41668382
0000c0 e3 e4 82 3e 8a 4c 33 3f 0b 43 8d 3e 34 3f b4 3d
       0.25565252 0.70038664 0.27590212 0.088011175
0000d0 1e ec 4a 3c 0e a7 c5 3d 82 d4 7d 3d ce 4a 92 3d
       0.012385396 0.09651004 0.06197024 0.07143174
0000e0 04 a8 2d 3e da e7 ac bd c0 d8 3f be ad a9 36 bd
       0.16958624 -0.0844266 -0.18735027 -0.04459541
0000f0 81 b5 88 3e e5 33 b7 3d 38 c7 28 3e 14 2f d2 3e
       0.26700976 0.08945445 0.16482246 0.41051543
000100 c8 3b ac 3d 13 cb 40 bd ac 5f 1a be 03 a1 3a be
       0.0840984 -0.047068667 -0.15075558 -0.18225484
000110 51 73 97 3e c2 fa d0 be 4d ac 03 be 02 81 cb bd
       0.29580167 -0.40816313 -0.12858696 -0.09936716
000120 1a d6 47 3d 15 c3 18 bd 83 5d b9 bd 14 ed 60 be
       0.048788168 -0.03729542 -0.09051039 -0.21965438
000130 00 2e aa 3d bb 25 a9 bc 32 78 19 3d b4 38 0e 3d
       0.08309555 -0.020647874 0.037468143 0.034722045
000140 7b 8a 84 3e 97 6e 3b 3d 12 72 a3 be bb 28 b7 be
       0.25886902 0.045759764 -0.31922966 -0.35773262
000150 77 da de bd b2 05 86 be 3e f0 1c 3e 63 ee 18 be
       -0.108815126 -0.2617622 0.1532602 -0.14934687
000160 8d fb 81 3e 7f ed 15 be 52 0b d2 bd 03 08 02 3b
       0.2538723 -0.14641379 -0.102560654 0.00198412
000170 38 6e d9 bd f9 b7 3a 3e 69 d5 e4 bd 23 ca b4 3e
       -0.10616726 0.18234242 -0.11173517 0.35310468
000180 c5 4a d2 bd ca 0e 9b bd 6f ef aa 3d 63 65 70 be
       -0.102681674 -0.0757118 0.083464496 -0.23476176
000190 ff ef 5b be 03 5b 1d be d8 77 d9 bd bc 43 44 bd
       -0.2147827 -0.1536675 -0.106185615 -0.04791616
0001a0 51 4c 88 3d 80 ef b5 bd ef 5e 85 be 66 2d 9e bd
       0.06655181 -0.088835716 -0.2604899 -0.07723503
0001b0 52 3f 64 be 08 f5 14 3e 2c 93 2d be 8d 27 12 be
       -0.2228978 0.14546597 -0.16950673 -0.142729
0001c0 82 62 5e 3d 32 ca a1 3d d8 41 af 3e 8c 68 14 3e
       0.054293163 0.07899894 0.34229922 0.14493006
0001d0 a8 ab 6d 3e ae 8b 25 3e 56 a1 09 3e 11 dc eb bd
       0.23210013 0.16166565 0.13440451 -0.11516584
0001e0 58 35 a9 3e e3 12 f6 bd 03 1a 55 3d ba 4a 92 be
       0.3304851 -0.12015321 0.05202676 -0.28572637
0001f0 d7 d7 d9 3e 7c 07 04 3e 2c dc b7 bd 65 6a cf 3e
       0.42547485 0.1289348 -0.08977541 0.4051086
000200 e2 fd 19 3e 20 7f 01 be 8d 86 b5 3e 03 94 09 3f
       0.15038255 -0.1264615 0.35454217 0.5374147
000210 dc 16 3f be 93 25 df 3e e7 53 0f 3f 91 6d fa bd
       -0.18661064 0.43583354 0.559874 -0.122279294
000220 90 f8 c8 be ae 85 f2 bd 36 a6 58 3e 8a 1f b7 be
       -0.39252138 -0.118419036 0.21157154 -0.3576625
000230 cd 76 de 3c da 04 6e 3e e2 47 ee 3d a6 1a 53 3e
       0.027156258 0.23244038 0.11634804 0.20615634
000240 92 a9 84 3e cf d1 38 3e 12 5c ce bb b9 8a ec 3c
       0.25910622 0.18048786 -0.0062975967 0.028874742
000250 d0 63 11 3e b2 ce 46 3c d8 67 c6 3d ff c4 ba 3c
       0.14198232 0.012134241 0.096877754 0.022799013
000260 9a 46 ea bd f2 6b 62 3d 30 09 ac bd e4 b1 7c be
       -0.114392474 0.055278726 -0.0840019 -0.24677235
000270 09 d3 ce 3d 90 da 1f 3e a4 ce 85 3d ac 8c 23 3e
       0.100988455 0.15610719 0.06533554 0.15971631
000280 62 92 3b 3e d8 de c8 bd d0 3a c3 3c b4 27 19 be
       0.1831756 -0.09808129 0.023831755 -0.14956552
000290 0a 2c ee bd ca 28 43 3e 6a 36 c1 3c 6a 58 fc bc
       -0.116294935 0.19058529 0.023585517 -0.030803878
0002a0 02 22 af be cb cd 63 be 95 ed 4c 3e c5 41 04 be
       -0.34205633 -0.22246473 0.20012505 -0.12915714
0002b0 31 75 9a 3c 86 3b 28 be d8 d8 16 3d bd 04 44 3b
       0.01885471 -0.16428956 0.036827892 0.002991005
0002c0 cf bc 28 3e 86 da b7 bd 3d 28 c1 3e 5f 82 40 be
       0.16478275 -0.08977227 0.37726012 -0.18799733
0002d0 87 b8 bd bc 17 f0 8a bd 32 40 3b 3e a1 10 29 bd
       -0.023159279 -0.06784075 0.18286207 -0.041275624
0002e0 71 04 22 3e 88 6b bc 3e d7 d0 e0 bd 70 36 95 bd
       0.15822007 0.3680079 -0.10977333 -0.07285774
0002f0 20 3b 22 3e 75 6f 08 3e 1a 80 46 be d5 04 bf 3e
       0.15842867 0.13323767 -0.19384804 0.37308374
000300 64 52 84 3b a7 5f a6 bd e8 15 2e 3e 65 52 5c be
       0.004038142 -0.08123713 0.17000544 -0.21515806
000310 e3 16 7f be 51 31 8e 3e 87 13 8b be 6a 27 d8 bc
       -0.24911074 0.27772 -0.27163336 -0.026385982
000320 e2 7b 7e be 6b de 69 3e 17 b8 a5 3e 4b d4 df bb
       -0.24851945 0.22838752 0.32367012 -0.006830727
000330 2c 15 9d 3e c1 01 03 3e 0c 6b 0e 3e 07 62 a7 be
       0.30680215 0.12793638 0.13908023 -0.32691976
000340 87 2e 4d 3e df b6 37 3d 1a ae d0 be 1e 49 85 3e
       0.2003728 0.044852134 -0.4075783 0.26032346
000350 12 62 e0 bd fb 25 d0 bd bb 45 8d 3d 43 8e ec 3c
       -0.109562054 -0.10163494 0.06898066 0.02887643

resnet.layers.1.weight f4 [8]
000000 9a 68 7e 3f db 21 65 3f 80 58 7f 3f a1 57 8b 3f
       0.9937836 0.89504784 0.99744415 1.0886117
000010 af 26 5d 3f 16 a0 82 3f b4 94 86 3f a4 99 7b 3f
       0.8638715 1.0205104 1.051413 0.9828131

resnet.layers.1.bias f4 [8]
000000 d3 92 b4 bd 74 6a b0 be 97 7c ef bd a4 82 1a bd
       -0.08817067 -0.34456217 -0.116936855 -0.037722245
000010 61 a9 32 be 61 79 d6 bd 04 d9 ce bd 1a 37 3f be
       -0.17447425 -0.1047237 -0.10099986 -0.18673363

resnet.layers.1.running_mean f4 [8]
000000 f9 21 e7 3e 7f 70 83 3f 7f cd 1a 3d d1 c5 f2 be
       0.45143107 1.0268706 0.037793633 -0.47416547
000010 41 43 63 3f 0f a2 17 3e 9f 5a 19 3e cb 7c bd 3d
       0.88774496 0.14807914 0.14975975 0.09252318

resnet.layers.1.running_var f4 [8]
000000 6a f3 c7 3e e4 30 7b 3f 64 1c 9f 3d 2a 39 64 3e
       0.39052898 0.98121476 0.07769087 0.22287431
000010 ad 5b 5c 3f af de 43 3e 19 a8 28 3e cb d3 43 3e
       0.86077386 0.19127916 0.16470374 0.19123761

resnet.layers.3.layers.0.weight f4 [8, 8, 3, 3]
000000 ff a6 3d 3e 72 ea 28 bd 28 61 ab bd 48 a6 f5 bd
       0.18520735 -0.04123921 -0.083681405 -0.11994606
000010 96 7d 2f 3e 0a ea 27 3e 4b 14 20 3d 06 97 b6 3c
       0.17137751 0.16397873 0.039081853 0.02228881
000020 aa 56 63 3d a3 5f 0c be bd 0a 79 bd a6 4a 09 be
       0.05550257 -0.13708358 -0.060801256 -0.13407382
000030 92 c9 a2 3d 8e a8 e4 3d da ea aa 3c 57 d5 01 3d
       0.07948603 0.11164962 0.02086394 0.031697597
000040 a4 64 29 bd d9 c0 be 3d 96 a2 18 3d 51 4c 27 3c
       -0.041355744 0.093141265 0.03726443 0.010211066
000050 b3 05 c6 bb 5a d0 87 be 5d 57 7f 3c 41 90 f2 bd
       -0.00604316 -0.26526147 0.015584794 -0.118439205
000060 43 2e 5f 3e 9d 0e c5 3d 0c 73 f1 bd 19 0a 15 be
       0.21794991 0.09621928 -0.117895216 -0.14554633
000070 3c d3 5e be 9b 71 a9 3d fa cf 4d be 35 4e 24 be
       -0.21760267 0.08273622 -0.20098868 -0.16045459
000080 70 f4 74 3e 77 3f 9f bc 01 0a 8a 3d 6f c5 3b 3c
       0.2392137 -0.019439442 0.06740189 0.011460646
000090 ea 48 9c bc 64 15 84 bb da fe 94 bc 45 3d 12 be
       -0.019077737 -0.0040308703 -0.018187929 -0.14281185
0000a0 75 d5 2a 3e aa cc 11 be 0c 58 de bd 07 ad 19 be
       0.1668299 -0.1423823 -0.10856637 -0.15007411
0000b0 e4 79 aa 3d 5d 6c 8d 3d d7 18 88 3d ae a1 c0 bb
       0.0832403 0.06905434 0.06645363 -0.0058786487
0000c0 83 eb 25 be 35 5b 48 bd 95 62 45 3c 36 29 3d be
       -0.16203122 -0.048915107 0.01204743 -0.18472752
0000d0 2e fc e5 bc 00 29 1d bb cf a3 1e 3e d8 6f 22 be
       -0.02807435 -0.0023980737 0.15492176 -0.15862978
0000e0 33 9b 01 3c b8 f4 23 be d0 db 74 ba 88 f1 a1 3e
       0.0079105375 -0.16011322 -0.0009340616 0.31629586
0000f0 53 51 a0 3d c6 c8 26 3e e7 01 0f 3d 6a 4a b7 3e
       0.07828011 0.16287526 0.034913924 0.3579896
000100 65 72 28 be 57 b4 44 3d f0 63 ba 3d 5f 26 35 be
       -0.16449888 0.048023548 0.09101093 -0.17690419
000110 6b a2 a1 3d 1c be 81 bc f7 a8 a3 3d 66 fa cd bd
       0.07892307 -0.015837722 0.07991212 -0.10057525
000120 9c 77 8d bd f5 b6 1b bd 38 a8 a0 3c b4 37 1d bd
       -0.06907579 -0.03801628 0.019611463 -0.0383832
000130 e9 b9 97 bc df ac 4d be 2e 72 d5 bd 42 07 e6 bc
       -0.018521266 -0.20085476 -0.10422169 -0.028079633
000140 12 84 b2 3d 12 d0 3e 3d c2 d0 ce bd 9e 1c fa bb
       0.08716597 0.04658515 -0.10098411 -0.007632806
000150 67 05 1a bd bd df 96 3c 4b 48 bf bd 2d 4f 93 bd
       -0.03760281 0.018417234 -0.09339961 -0.07192836
000160 ea a6 63 3e 1d f1 8c be 12 3e df bc b3 02 6d be
       0.22231641 -0.27527705 -0.027251277 -0.23145561
000170 7a 1c 5b 3e df 2e 3c be df 81 88 be cf 61 21 be
       0.21397582 -0.18377255 -0.26661584 -0.15759967
000180 95 db ed bd 7a 8e 58 be 0f 33 ee bd 69 72 45 bd
       -0.116141476 -0.211481 -0.116308324 -0.048204813
000190 fa ed 4e be 29 36 51 bc c9 b0 ab be ea e7 17 be
       -0.20207968 -0.01276926 -0.33533314 -0.14834562
0001a0 f7 ae 12 3d a4 fa a2 bd e3 af 95 3d 45 b5 9b 3d
       0.03581139 -0.07957962 0.07308938 0.07602934
0001b0 ca 26 22 be e5 d0 06 bd 7b f8 3b bd a3 ff 12 be
       -0.1583511 -0.03291406 -0.045891266 -0.1435533
0001c0 02 b5 8b 3d 30 12 c3 bd 0e ea f9 bd 01 87 43 bc
       0.06821634 -0.09524953 -0.122028455 -0.011934043
0001d0 82 9d 13 be 54 31 2b bd 4f c7 5a be 8b 2d fe 3d
       -0.14415553 -0.04179509 -0.21365093 0.124110304
0001e0 32 7f 31 bd 65 47 8e be 14 37 99 be 27 85 de 3c
       -0.043334194 -0.27788845 -0.29924834 0.027163101
0001f0 c6 63 08 bd ef 94 03 be 6b f6 14 be 26 ca 34 3e
       -0.033298276 -0.12849782 -0.14547126 0.17655239
000200 47 a9 bc bd e6 70 c5 bd a4 a5 f6 39 e7 a0 60 bd
       -0.092119746 -0.09640674 0.00047044188 -0.05484095
000210 90 19 95 bd 07 fd 5b be 5c 40 d5 3d c3 43 76 be
       -0.07280266 -0.21483241 0.10412666 -0.24049287
000220 3c 33 d1 bd f6 a7 a1 3e 81 d8 4b 3c ba bb bf 3d
       -0.1021485 0.31573457 0.012441755 0.09361978
000230 19 91 71 3d d9 cc 0a be e8 20 2a 3e 5b fd 3a be
       0.058976267 -0.13554706 0.16614115 -0.1826071
000240 4b d9 14 be 31 6d 52 be af 38 67 3e b2 59 5f bc
       -0.14536016 -0.20549466 0.22580217 -0.013632225
000250 0c 41 be bc d4 a7 77 bd eb 63 3d 3e 5d 4b f3 bc
       -0.023224376 -0.060462788 0.18495147 -0.029699022
000260 e0 f5 d6 3c ca 7f 59 3d d2 4b 58 be 98 e8 26 3e
       0.02624029 0.053100385 -0.21122673 0.16299665
000270 c1 03 87 3e f5 59 e3 bc 3a 13 fb 3d 64 d2 36 3d
       0.26370052 -0.027752856 0.122595266 0.044634238
000280 11 bf 91 3d c0 3d 9a bd b1 df 8c 3d 12 ef 8d 3e
       0.07116521 -0.07531309 0.06878603 0.2772146
000290 d8 dd 9a bd 8c c6 52 be 07 68 ea bd 1b f5 1a 3d
       -0.075618446 -0.20583552 -0.11445623 0.037831407
0002a0 b1 06 24 be fb 8d d8 3d a3 5f 3d bd d5 f1 06 bc
       -0.16018178 0.105739556 -0.046233784 -0.008236368
0002b0 eb 10 ae bd 87 29 c8 bd 94 a4 41 bc 93 f8 2f 3e
       -0.084993206 -0.09773546 -0.011819024 0.17184667
0002c0 25 a8 a3 3c dd bb a4 3d 84 b6 8a bb 78 6a e1 3c
       0.019977638 0.080436446 -0.0042331833 0.027516589
0002d0 58 3d 5c ba eb 62 24 be 83 dd 2b be 98 ad 44 3d
       -0.0008401475 -0.16053359 -0.16783719 0.048017114
0002e0 4d d4 ef bd d2 c0 b6 bd db d3 1a 3d 8b 56 22 3e
       -0.11710415 -0.08923496 0.037799697 0.15853326
0002f0 f3 ea f9 3d 8e 68 ae 3d 58 73 65 bd 1e 2e ff 3d
       0.12203016 0.08516036 -0.056018203 0.12459968
000300 15 49 c2 3d a0 f2 71 3e bd 66 61 bc ee c2 2f 3e
       0.094865955 0.2362771 -0.013757405 0.17164204
000310 bb c5 d2 bd 86 b6 9d bd 57 49 37 be 2f ff 35 be
       -0.1029162 -0.07700829 -0.1789907 -0.17773126
000320 f1 2f ce bd a8 d2 f0 3d d8 ba 3c 3e 74 37 2a 3e
       -0.10067738 0.117589295 0.1843065 0.16622716
000330 3a d6 02 bd 2a 94 3b 3d 27 7a 10 3e ec 35 af 3d
       -0.031942584 0.045795597 0.14109097 0.08555207
000340 70 2f d6 3c 3b e6 ab bd 10 17 f9 3e 2a ab 57 be
       0.026145667 -0.08393522 0.48650408 -0.21061388
000350 6d 4f ff 3d 85 43 71 3e fb e5 50 3e 5b 26 53 bd
       0.12466321 0.23560913 0.2040023 -0.05155025
000360 a5 c1 2c 3d 6e ff 63 3d 75 f9 52 bd 35 dd 2a 3d
       0.04217686 0.05566352 -0.051507432 0.041714866
000370 8b 6d 24 3e 03 45 77 3e a7 8d 00 3e 2d cc 13 3e
       0.16057412 0.2414742 0.12554036 0.14433356
000380 f2 ae b7 bd bc f8 f1 3c 86 97 b9 3d 5c be 27 3c
       -0.08968915 0.029537551 0.09062104 0.010238256
000390 7e 1f 31 be aa a6 2d 3e 3a 35 f6 3d 93 95 1f 3e
       -0.1729717 0.16958109 0.12021871 0.15584402
0003a0 df a4 0c be dd 18 f7 3d eb 89 f3 bd 54 ea 2e 3e
       -0.13734768 0.12065289 -0.1189154 0.17081577
0003b0 7f 9c 6e 3d 93 11 b0 3d ae 2b 8e 3e 94 97 c6 bd
       0.058254715 0.08597102 0.277677 -0.0969688
0003c0 8d c2 73 bc 12 4c 9f 3d 2e d4 b2 3d f0 46 89 be
       -0.0148779275 0.07778181 0.08731876 -0.26811934
0003d0 c8 17 64 3e 7a 3c 63 be 8c 78 78 3d 0e ae fd 3d
       0.22274697 -0.22191039 0.060661837 0.12386714
0003e0 68 2d 28 3d 82 f3 90 bc f5 cf d1 3d 52 ce 42 bd
       0.041058928 -0.017694239 0.10244743 -0.047560044
0003f0 bc ac af 3d 15 de ed 3d cc 74 38 b9 9b a6 4f bd
       0.08577868 0.116146244 -0.00017591118 -0.050695997

resnet.layers.3.layers.1.weight f4 [8]
000000 4f 44 7e 3f 84 b8 77 3f 38 79 98 3f 6c b4 76 3f
       0.9932298 0.96765924 1.1911993 0.9636905
000010 3f 12 7b 3f f5 5f 78 3f 0b 2a 63 3f e7 88 88 3f
       0.98074716 0.9702142 0.8873603 1.0666779

resnet.layers.3.layers.1.bias f4 [8]
000000 46 ba 18 bd e2 4f e6 bd 3f 91 9f bd a7 d3 94 be
       -0.03728702 -0.11245705 -0.07791375 -0.29067728
000010 c1 76 df 3c 1f 9f 9a bd 05 9a 46 be 07 15 f9 bd
       0.027278306 -0.07549881 -0.19394691 -0.12162214

resnet.layers.3.layers.1.running_mean f4 [8]
000000 ad 0c 5c bd 69 4a 90 bf a9 a2 ad 3e f8 00 53 3f
       -0.053723026 -1.1272708 0.33913162 0.82423353
000010 64 56 70 be 06 6b 49 bc cd 0b 31 3e 82 c7 2b be
       -0.23470455 -0.012293583 0.17289658 -0.16775325

resnet.layers.3.layers.1.running_var f4 [8]
000000 b2 28 d1 3e 79 85 2f 3f 54 3c b8 3e 47 f8 0a 3f
       0.4085136 0.6856304 0.35983527 0.5428509
000010 f2 5c 00 3f 02 7f 78 3e 86 1b 4d 3f c0 7d 5b 3e
       0.50141823 0.242672 0.8012012 0.21434689

resnet.layers.3.layers.3.weight f4 [8, 8, 3, 3]
000000 81 3d 90 3d b2 7b 80 3e 3d f0 c6 3d b5 c3 aa 3b
       0.07042981 0.25094372 0.097137906 0.0052113184
000010 57 4c 1c 3d 5d b1 1c 3b 21 f0 f7 bd 87 bd 75 be
       0.03815874 0.0023909428 -0.12106348 -0.2399808
000020 24 97 ca 3d e4 3f ee bc 84 23 42 be 92 8c 22 be
       0.09892109 -0.0290832 -0.1895886 -0.15873936
000030 ea 3a 5e be 84 38 a2 bc 0b 66 48 bd 05 df 74 be
       -0.21702161 -0.01980234 -0.04892544 -0.239132
000040 0f 55 9d be 81 d7 57 bd c4 70 99 3d e7 76 f8 bc
       -0.30728957 -0.052695755 0.074922115 -0.030330135
000050 f9 6d 61 3e 0d af 5a 3e 50 80 1a 3e 5f e9 72 3c
       0.22014607 0.21355839 0.1508801 0.014826148
000060 27 8c 8e 3d e5 69 2a be a6 6e 05 be ed fb 15 bd
       0.06960326 -0.16641958 -0.1303049 -0.03661721
000070 ea a8 20 be 16 2d 1b be 89 e7 de 3d 1e 6d bf 3c
       -0.15689436 -0.15153918 0.108840056 0.02336746
000080 b4 c8 ac 3d e9 bd 20 be 96 c3 47 be b2 3e 61 bd
       0.084367186 -0.15697445 -0.19508204 -0.05499143
000090 fc d3 62 bd a6 4d 7e 3e 60 56 49 bc df af 38 be
       -0.055377945 0.24834308 -0.01228866 -0.1803584
0000a0 d2 4b cf bd 4e 71 31 3e 0f 12 60 be 43 85 32 bd
       -0.101218835 0.17328379 -0.21881889 -0.04358412
0000b0 b5 46 5c 3d 9e 4b 49 3c c0 94 16 be 3c 43 10 be
       0.05377837 0.012286095 -0.14705181 -0.14088148
0000c0 cf 4d fd bd 9b 58 0c be 38 4e 85 be 95 73 de bd
       -0.123683564 -0.13705675 -0.2603624 -0.10861889
0000d0 6e 1f 7e be ee 01 47 be a6 7a 0b bd c9 f0 89 3d
       -0.24816677 -0.1943433 -0.034052514 0.06735379
0000e0 a6 f0 5d 3c 85 0c d2 bd b5 15 3e 3e 27 32 16 3e
       0.013546145 -0.10256294 0.18562968 0.14667569
0000f0 83 14 66 be 72 08 10 bd d5 0e e4 3d 05 bd b0 bd
       -0.22468762 -0.035164304 0.111356415 -0.086298026
000100 d3 05 bf 3d 33 ac 23 be 7b 07 0f be 47 50 b1 bc
       0.09327283 -0.15983658 -0.13967697 -0.021644725
000110 52 1c 23 3d 19 46 83 bc bd 31 35 bd 0e c9 cd bd
       0.03982193 -0.016024636 -0.044236887 -0.10048114
000120 ad ad 0e 3d ee c0 0b be 9c 7d 29 bd 40 0a e5 bd
       0.0348336 -0.13647816 -0.041379556 -0.11183596
000130 4b ae 09 3d d9 f9 66 be 02 4b 52 3e 2c b4 12 bd
       0.033613484 -0.22556247 0.20536426 -0.035816357
000140 a0 8e 6a bd a3 d7 34 3e 50 ba a2 3c f0 3a 56 bc
       -0.057264924 0.17660384 0.019864231 -0.013075575
000150 36 44 ad 3d da 75 16 3e aa 6e f0 3d 1e bc 4c bd
       0.08460276 0.14693394 0.117398575 -0.04998409
000160 a2 18 16 bd 7d 1f 5f bd 07 bc 71 3d 46 dc df bd
       -0.036644585 -0.05447339 0.059017207 -0.10930686
000170 f0 ae 0f bd 56 4d 3a 3e 37 c7 4e be 70 fe ba 3d
       -0.035078943 0.18193564 -0.20193182 0.09130561
000180 88 e9 37 bb 4f bc 24 3e 31 b2 0c be ed 18 1d 3e
       -0.002806278 0.16087459 -0.1373985 0.1534154
000190 03 80 a1 bd 03 6a e6 3d b4 ce 06 3e 81 0d a6 3e
       -0.078857444 0.11250689 0.13164788 0.32432178
0001a0 00 71 2e be 16 f8 35 3e 1b 21 8c bc 97 27 fb bc
       -0.17035294 0.17770419 -0.01710563 -0.030658526
0001b0 e8 66 c5 3d 4c e7 72 3d 4c 51 96 bd 11 ce d7 bd
       0.096387684 0.059302613 -0.07339725 -0.10537351
0001c0 13 76 1e bd 36 d7 18 3d 3e 6c 3b be 3b 54 24 3e
       -0.038686823 0.037314616 -0.1830301 0.16047756
0001d0 2a 1a 15 3d 8b 59 9c bc b9 81 8c 3e 18 28 c3 3c
       0.036401905 -0.019085666 0.2744272 0.02382283
0001e0 04 d6 94 bd ad 75 93 3d 71 7a 70 bc 1d 85 1c 3e
       -0.07267383 0.07200179 -0.01467763 0.15285154
0001f0 c2 c6 c9 bd 4b 06 43 be a6 98 d5 3d fc cf c7 bd
       -0.09852363 -0.1904537 0.10429506 -0.09756467
000200 ee 05 00 be 76 bb 4d be 3c 95 05 3e 57 c3 6f be
       -0.12502262 -0.20091042 0.1304521 -0.2341436
000210 6e a6 b4 3d e8 6e 8e 3d 9f 75 8a 3c be df 83 bc
       0.088208064 0.069547474 0.01690179 -0.0160979
000220 0d 5b d0 bd 4e e8 56 be 6a 44 e3 3d 0d 25 1d be
       -0.101736166 -0.20987055 0.11097033 -0.15346165
000230 bf f7 4e 3d bc 42 4b 3e 3c 7a a6 3e 75 07 09 be
       0.050529238 0.19849676 0.32515132 -0.13381751
000240 24 7d fc 3c 70 e2 aa 3c d9 55 7d be f5 19 b9 3d
       0.03082139 0.020859927 -0.2473978 0.09038154
000250 76 7a 8d 3d 40 6f c2 bd 20 be 2c 3d 16 c0 d8 3d
       0.06908123 -0.094938755 0.042173505 0.105835125
000260 9b 8b 30 3e 69 f9 c1 3d da 67 dc bd 6a 56 ea bd
       0.17240755 0.09471399 -0.107619956 -0.114422634
000270 f1 02 4a be 89 f2 0e 3e 6f 6a d4 bc 4f fc fc bd
       -0.19727685 0.13959707 -0.025929658 -0.123528115
000280 97 eb 07 bd 6c c6 75 3d db 44 97 bd d9 f8 84 3e
       -0.03318366 0.060003683 -0.0738618 0.25971106
000290 7f b7 d8 bd a4 f6 1c 3d 88 53 56 3e ee 17 c5 bd
       -0.10581874 0.038321152 0.20930302 -0.09623705
0002a0 3a 57 22 3c e6 3f e6 3d 91 e5 94 3c f9 84 8a 3d
       0.009908492 0.112426564 0.018175872 0.06763644
0002b0 80 a6 cb bd fe 4d 79 3c c0 7a 0a 3d e8 ae c8 3c
       -0.09943867 0.015216349 0.03380847 0.024497464
0002c0 ba fb 95 be 44 6c 66 be 79 2d 33 be 49 66 b7 bc
       -0.29293615 -0.22502238 -0.17497815 -0.02238764
0002d0 73 a5 8b 3e c3 c3 c3 3b 8c 78 81 3d c6 a4 ac 3d
       0.27274665 0.0059742643 0.063218206 0.084298655
0002e0 36 7f 0e be 71 63 b9 3d 2e 23 85 be 2d 7a 95 3e
       -0.13915715 0.0905217 -0.26003402 0.29194775
0002f0 ca 21 4c be 8e 0e 44 3e 0e 4e d5 bd 45 06 fc 3d
       -0.19934765 0.19146177 -0.104152784 0.12305883
000300 4b 53 1a be 25 4a 1d bd b6 ad c7 bd 7f 9d 91 bd
       -0.15070836 -0.038400788 -0.097499296 -0.07110118
000310 7b 25 ff 3d 09 ef 89 bd 89 d3 9e 3d 70 b6 b1 3c
       0.12458321 -0.067350455 0.07755191 0.021693438
000320 22 36 36 be f6 94 23 be 82 3d e7 3d 19 a5 1c bd
       -0.17794088 -0.15974793 0.112910286 -0.038243387
000330 df 34 29 be 82 cb 26 3d 68 87 c9 3d 42 c4 80 3e
       -0.16524075 0.040721424 0.0984028 0.25149733
000340 30 3c d9 3d 9c 2f 11 bc 74 64 41 3d 38 4c 30 3d
       0.10607183 -0.008861449 0.04721494 0.043041438
000350 24 5b 85 3e 7f 86 d4 bc 90 a0 59 3e fa d3 fe bc
       0.26046097 -0.025943039 0.21252656 -0.031106938
000360 a8 2b a0 bd 31 5a ca bd 9a 3f 69 3e 40 86 b4 3d
       -0.07820827 -0.09880484 0.22778168 0.08814669
000370 7a 44 b1 3a d4 4b 32 3d 8c cf 5a bc 9f 66 07 3e
       0.0013524436 0.043529347 -0.013355147 0.1322274
000380 92 b6 6c be 1d 96 e8 3d a6 f1 1d bd 09 2e f8 3d
       -0.2311652 0.11356757 -0.038560532 0.121181555
000390 4a 12 d2 bc 37 14 fd bd c3 08 1a bd 05 b9 cd bd
       -0.025643487 -0.12357371 -0.037606012 -0.10045055
0003a0 72 2a 18 3e d6 bc 8d 3b 06 2b 76 3d 01 4a a2 be
       0.14859942 0.0043254895 0.060099624 -0.31697085
0003b0 96 e5 73 3e 3d 96 6f be 5a a6 a0 3d ce bf 9a bd
       0.23818049 -0.23397155 0.07844229 -0.07556115
0003c0 f6 1b a8 3d 3c 5a c5 bd e2 59 df bb b1 4a 88 3c
       0.08208458 -0.096363515 -0.006816135 0.016637178
0003d0 65 b6 69 bd 0e 21 29 be 19 b2 16 be a0 17 4a be
       -0.05705871 -0.16516516 -0.14716376 -0.19735575
0003e0 ce 3b 82 3e 94 90 f8 bc be 41 e2 bd b1 19 57 3d
       0.25436252 -0.030342378 -0.110476956 0.052514736
0003f0 3a 14 49 3c ad 86 47 bd c1 39 56 be 88 16 fe 3d
       0.012272889 -0.04871242 -0.20920469 0.12406641

resnet.layers.3.layers.4.weight f4 [8]
000000 4d c9 76 3f e9 ad 96 3f 94 53 9d 3f 06 c9 8a 3f
       0.9640091 1.1771823 1.2291131 1.0842597
000010 0d a1 89 3f 1b eb 79 3f 5c c7 7f 3f 42 aa 6a 3f
       1.0752274 0.9762437 0.99913573 0.9166604

resnet.layers.3.layers.4.bias f4 [8]
000000 68 bf b0 bc 8b 94 26 be d0 f9 16 bd 84 ec 46 3d
       -0.021575645 -0.16267602 -0.036859334 0.048565403
000010 ad 9f c5 3d 74 5f 45 be a5 98 56 bd 37 c9 18 be
       0.09649596 -0.19274694 -0.052391667 -0.14920507

resnet.layers.3.layers.4.running_mean f4 [8]
000000 2d bc ff be dc 32 01 3e f6 0f 87 3e b1 1d 96 bd
       -0.49948254 0.12617058 0.26379365 -0.07329882
000010 09 a8 57 be 7a 43 4b be 2f 48 e9 bd b6 1e 0b 3f
       -0.21060194 -0.19849959 -0.11390721 0.54343736

resnet.layers.3.layers.4.running_var f4 [8]
000000 a2 2f 0a 3f f1 2b eb 3e 86 fb bc 3e 13 b3 a8 3e
       0.5397893 0.45931962 0.36910647 0.32949123
000010 5c 92 c4 3e e3 56 ef 3e 96 40 c6 3e f2 c2 c1 3e
       0.38392913 0.46745977 0.3872115 0.37844044

resnet.layers.4.layers.0.weight f4 [8, 8, 3, 3]
000000 c2 9b 92 3b ed 51 15 be a2 c7 20 bd c4 e5 03 3e
       0.004474134 -0.14582033 -0.039252885 0.12880617
000010 0e 6a 43 3c 32 b0 ce 3d b7 ee e1 3b 62 bb 9d bd
       0.011927141 0.100922 0.006894912 -0.07701756
000020 84 ca d4 3d 23 05 46 3e 89 98 3e bd a0 e0 75 3e
       0.10390189 0.19337897 -0.046532188 0.24011469
000030 88 e3 be 3d 13 ea 01 3e c2 32 91 be c1 8c df 3d
       0.09320742 0.12686948 -0.28359038 0.109155186
000040 1e 22 61 3c d4 a4 ff bd 0d 8e db 3d 2e 42 70 be
       0.013741044 -0.1248261 0.107204534 -0.23462746
000050 1f 9a 3a be 83 33 1c 3e 8c ff c5 3e 98 0f 1c 3e
       -0.18222855 0.15254025 0.3867153 0.15240324
000060 a8 ab 81 3e 9a 3c f6 3d f4 d0 a1 3d 74 24 85 3d
       0.25326276 0.120232776 0.07901183 0.065010935
000070 f3 8e 07 3e e5 d3 03 ba 94 88 5c be 2b e1 10 be
       0.13238125 -0.0005028828 -0.21536475 -0.14148395
000080 8e bd 73 bd b2 0b 3f 3e f1 ef 59 be 86 d8 9c bd
       -0.059506945 0.18656805 -0.21282937 -0.07658486
000090 21 3a 27 be 2f fd 7f 3c d8 78 cf bc db 14 2b be
       -0.16330768 0.0156243285 -0.025326177 -0.16707174
0000a0 8a 5c 43 be 8c 53 a0 3c dc af 7e 3c 8a 4c 69 3e
       -0.1907827 0.019571088 0.015544858 0.22783104
0000b0 fd 90 25 3d db 76 37 3e 92 97 13 be 7f f3 34 be
       0.040421475 0.17916434 -0.14413288 -0.17671011
0000c0 d8 fe 81 3e dd 58 21 3e 6d af aa 3c 80 82 98 3c
       0.25389743 0.15756555 0.020835603 0.018616915
0000d0 c7 17 2e 3e eb 37 90 3e 6f d7 53 bc 95 26 95 3d
       0.17001258 0.28167662 -0.012929781 0.072827496
0000e0 29 a0 06 bc bf 86 6b be f7 b2 21 be 8a b8 4b bd
       -0.008216896 -0.2300062 -0.15790926 -0.049736537
0000f0 44 70 81 be 5f 3c cc bd d7 d7 8a be 4e 0e 29 3c
       -0.25280964 -0.09972452 -0.27117798 0.010318352
000100 e3 39 2b 3d a4 4f 67 3d a2 46 8a 3d 76 7c ab bd
       0.041803252 0.056472436 0.067517534 -0.083733484
000110 00 b0 49 bd 85 eb d5 3c 03 a7 54 be 6a 0b 53 bd
       -0.049240112 0.026113281 -0.20766835 -0.051524557
000120 09 b3 ef 3d 1c 49 29 3d 8a d1 ef 3d d6 1a 8f bd
       0.1170407 0.04132949 0.11709888 -0.069875404
000130 e7 54 02 be 82 a5 98 bc 28 86 df 3c 64 19 64 bd
       -0.127277 -0.018633608 0.02728565 -0.055688277
000140 7e 56 68 bd a6 aa a3 3c 71 07 e7 3d c4 db 9f 3c
       -0.05672311 0.019978832 0.11280716 0.019513972
000150 bf 71 58 3d 9a 50 1e 3e 40 38 63 3e dc 85 90 3d
       0.05284285 0.15460435 0.22189426 0.07056782
000160 be e8 23 be 2e 36 fb 3d 05 a9 47 3d 0b bf 7e 3d
       -0.16006753 0.12266193 0.048745174 0.06219391
000170 4e 52 37 3e 9e 26 b1 3d 11 a1 45 be db 3f 0a 3e
       0.1790249 0.08649944 -0.19299723 0.13500921
000180 e3 22 f4 3d 96 1d 2e bd 9e 49 5b bd 80 1b 19 3e
       0.119207166 -0.042508684 -0.053537004 0.14951897
000190 2e 91 08 be e1 85 8f bd b4 93 8c bd 03 19 16 be
       -0.13336632 -0.07007957 -0.0686411 -0.14657979
0001a0 d3 a2 1d be cf 55 ed bd c2 06 34 3e 93 2e 0e be
       -0.15394144 -0.11588632 0.17580703 -0.13884954
0001b0 05 75 08 3e f9 26 0b bd d8 8a 00 3e 42 41 29 3e
       0.1332589 -0.033972714 0.12552965 0.165288
0001c0 75 02 af 3c fa 6d 47 3e 0e c1 81 3d 8c 90 16 be
       0.021363476 0.19475546 0.063356504 -0.14703578
0001d0 ef b7 05 be e0 84 c3 3c 69 0a 6a 3e 93 53 f6 3d
       -0.13058446 0.02386707 0.22855534 0.12027659
0001e0 23 07 28 3e e7 99 dd 3d d1 8a 64 3d fa 3f eb bd
       0.16408972 0.1082037 0.05579645 -0.11486812
0001f0 71 2b b0 3c 0f 45 59 3d c2 d6 c1 3d 07 5e 64 3d
       0.02150509 0.053044375 0.0946479 0.055753734
000200 49 7a 93 be bd fe 58 bd 4b 35 18 be 8d db a8 3d
       -0.28804234 -0.052977312 -0.1486408 0.08245001
000210 1e 94 e4 b8 98 4b fe 3d 01 f3 12 3e ec 69 81 bd
       -0.00010899476 0.12416762 0.14350511 -0.06319031
000220 80 44 48 3d 26 f5 26 3e c7 30 96 3e ff 2a 1a 3e
       0.04889345 0.16304454 0.2933409 0.15055464
000230 c9 e2 91 3d af 92 7b 3d 32 38 ee 3d 41 78 25 3e
       0.07123334 0.061419185 0.11631812 0.16159154
000240 da 3b c9 3d 76 84 3b bd ce bb 59 bd 55 af 26 3d
       0.09825869 -0.04578062 -0.05315762 0.040694553
000250 f4 f8 e9 bd ed 4c 8b bd bc 39 a9 3d 14 f8 28 3e
       -0.11424437 -0.06801782 0.08262965 0.16500884
000260 56 d0 79 bd 41 5b 87 bd 58 42 b9 bd a2 29 bb 3d
       -0.0609897 -0.06609202 -0.09045857 0.091388
000270 ca 8d 1e 3e 8f 9b 28 be 0c d0 42 3e b7 8f 70 bb
       0.15483776 -0.16465591 0.19024676 -0.0036706754
000280 79 01 c3 3d df a4 af bd 57 0e 72 3e f5 f0 a0 bd
       0.09521765 -0.085763685 0.23638283 -0.07858459
000290 bf f4 9c 3e a6 61 4d 3e c0 50 c6 3e 89 eb 0a be
       0.30655476 0.20056781 0.38733482 -0.13566412
0002a0 59 ff b3 bd ae a8 03 3e 10 81 4f 3d 6b 05 99 bd
       -0.08788938 0.12857315 0.050660193 -0.074717365
0002b0 e1 7f 5f bd 91 8a 14 be 0e 2e 8a bd 50 59 52 bd
       -0.054565314 -0.14505984 -0.067470655 -0.051354706
0002c0 b8 f8 4d bd 22 bd 87 3e 16 b6 0c be 5f 73 1f 3e
       -0.050286025 0.26511484 -0.13741335 0.15571354
0002d0 57 a8 3c bd 17 9d a5 bc f5 d9 78 bc 3a 41 8a 3c
       -0.04605898 -0.020216508 -0.015188684 0.016876806
0002e0 80 fa b5 3d 0e a8 81 3e 71 9e b0 bd a4 ae ab bd
       0.0888567 0.25323528 -0.0862397 -0.083829194
0002f0 f7 cc cc bd 0b 62 37 3d 8b 6e 47 3d 58 2e 01 bc
       -0.100000314 0.044771235 0.048689406 -0.007884584
000300 04 08 a3 bd 4e c8 46 3e a4 71 9a bd b0 5c 16 be
       -0.07960513 0.19412348 -0.075412065 -0.14683795
000310 61 26 eb bc 0b 16 88 3c 57 8f 05 3e 40 d1 e4 3c
       -0.028704824 0.016612073 0.13042961 0.02793181
000320 9f e2 bb bd dc d1 21 be 82 da 57 be 89 92 1a 3d
       -0.09174084 -0.15802711 -0.21079448 0.037737403
000330 e4 cd 17 be fd 10 c7 3d 0e a3 e4 bd f9 cb 83 3e
       -0.14824635 0.09720037 -0.11163913 0.25741556
000340 3e 09 e0 bd dd fc e2 bd b1 4c 54 be 31 92 ac bd
       -0.10939263 -0.11083386 -0.2073238 -0.08426321
000350 a3 c0 3d 3d 4c 7e 3e be 66 92 3b 3e e7 9c 4b bc
       0.04632629 -0.18602866 0.18317565 -0.012427545
000360 78 b2 39 3d ac 2c 2b bd 6c b0 e7 bd 02 45 8c bd
       0.045336217 -0.04179065 -0.11312947 -0.068491
000370 53 ce 93 bd 06 1c d5 bb 4a 0d 0b 3d d9 6c ff 3c
       -0.072170876 -0.006503585 0.03394822 0.031179832
000380 e0 d8 81 bd fc d9 75 bc 93 89 ae 3d 40 60 01 bd
       -0.06340194 -0.015005585 0.08522334 -0.03158593
000390 a7 93 9b 3d ce 67 af 3d be e9 c5 3d 3a 69 de 3c
       0.07596522 0.08564721 0.096637234 0.027149785
0003a0 f2 27 03 be 5f 83 2b 3e fe 62 96 bd a0 dd 80 3e
       -0.12808207 0.16749333 -0.073431 0.25169086
0003b0 84 ca 9c 3e 2f fc cd bd 45 57 1a 3d 0f ae 0f bd
       0.30623257 -0.10057866 0.037680883 -0.035078105
0003c0 9a 2f 15 bd ae b9 bd bd 5d 5e 91 be 52 7f 0f 3d
       -0.03642235 -0.09263931 -0.28392306 0.03503353
0003d0 1d 83 af bd c9 ec 81 3d b3 cc 2c 3e 3a 8c 3c 3e
       -0.0856993 0.06343991 0.16874962 0.18412867
0003e0 cb fe 70 bd fa 5c 2d 3d 7b 50 63 3c f4 79 09 3e
       -0.05883674 0.042324997 0.0138741685 0.13425428
0003f0 64 13 34 3e 61 91 e3 3c da 99 cc 3d bd 05 17 3e
       0.17585522 0.027779283 0.09990282 0.14748283

resnet.layers.4.layers.1.weight f4 [8]
000000 0a b7 8c 3f af e4 73 3f 63 69 88 3f ce 71 83 3f
       1.0993359 0.9527082 1.0657161 1.0269105
000010 a5 4b 87 3f 7f 76 5b 3f 2f 66 7c 3f 2d bf 76 3f
       1.056996 0.85727686 0.9859342 0.9638546

resnet.layers.4.layers.1.bias f4 [8]
000000 6d 6d ae bd 5e 3d 9d bc 71 59 2b 3d ec fd 2b be
       -0.08516965 -0.019194301 0.041833345 -0.16796082
000010 ae 10 b6 bc aa ff e3 bd f5 ab 4b 3d af a4 66 bd
       -0.02222475 -0.111327484 0.049724538 -0.0563094

resnet.layers.4.layers.1.running_mean f4 [8]
000000 2e 27 00 bd 9a 98 19 3f 44 17 7c 3e 6b dc 63 3f
       -0.031287365 0.59998477 0.2461825 0.89008206
000010 d7 c6 da bc 4c 04 11 3f 50 3f fc 3e eb 0f 1d bf
       -0.026706142 0.5664718 0.49267054 -0.61352414

resnet.layers.4.layers.1.running_var f4 [8]
000000 3c 57 54 3f df a9 76 3f 34 18 4b 3f b2 5b 28 3f
       0.8294561 0.9635295 0.79333806 0.65764916
000010 84 b2 da 3e b6 21 3b 3f a8 62 8b 3f 4b 8f 25 3f
       0.42714322 0.73098314 1.0889482 0.6467177

resnet.layers.4.layers.3.weight f4 [8, 8, 3, 3]
000000 f4 57 0c 3e a9 a7 09 be 88 6e c9 bd af be 04 be
       0.13705426 -0.13442864 -0.09835535 -0.12963365
000010 c9 7c f9 3d 02 69 e9 bc 28 e3 3c 3c ac 8c 66 3d
       0.12182004 -0.028492454 0.011528768 0.0562865
000020 2f 2d a2 bd 99 eb 52 3e 96 d2 2d bc 8e fb a1 bd
       -0.07918774 0.20597686 -0.01060929 -0.079093084
000030 1f d3 5c 3e 39 f3 e7 bd af 28 47 be 6f 69 bf 3d
       0.21564911 -0.11325688 -0.19449113 0.09346282
000040 b8 5f 01 be 93 9a 89 3c dc 07 25 bb e8 79 35 3d
       -0.1263417 0.01679734 -0.0025181687 0.044305712
000050 f7 16 8d 3b 37 7b 8f bd 75 c2 f4 bd 4f 35 83 be
       0.004305716 -0.07005923 -0.11951152 -0.2562661
000060 26 42 b7 3b 91 44 07 3e 21 15 3b bd 37 2c 8c 3d
       0.0055926023 0.1320975 -0.045674447 0.06844371
000070 79 ea 3d bd 00 18 05 3c 34 72 b6 bc 97 90 67 3d
       -0.04636619 0.008123398 -0.022271253 0.056534376
000080 35 2f 5a bd c1 35 2e 3e 3c 19 e7 bd 90 fd 09 be
       -0.053267676 0.17012693 -0.1128411 -0.13475633
000090 3b 39 f9 3d 00 e0 32 be 43 86 24 be ad 56 1e 3d
       0.12169119 -0.17468262 -0.16066842 0.03865688
0000a0 ae 67 45 bd d1 ef 08 be 7d b4 e6 3d c6 94 b8 3c
       -0.04819458 -0.13372733 0.11264894 0.022531878
0000b0 a4 3a c8 bc d9 c8 1d bd 61 11 ef bc ee 9b 98 bc
       -0.024442025 -0.03852162 -0.029183092 -0.01862904
0000c0 08 91 09 3c ed 60 07 be 87 8e 25 be ac 3a 9f 3c
       0.008396395 -0.13220568 -0.16167651 0.019437157
0000d0 30 dc 61 3d 3f 04 a2 be 6a 76 00 3a 6d 45 37 3e
       0.055141628 -0.31643865 0.00049004576 0.17897578
0000e0 a8 e2 e7 bd bd bc 41 3d ad 5f 36 be 27 32 1d be
       -0.11322528 0.047299135 -0.17809935 -0.15351163
0000f0 24 e5 37 bd 3c 9c d1 bd 0c d9 14 3d 84 87 b5 bd
       -0.04489626 -0.102348775 0.036339805 -0.08863738
000100 b3 a1 b4 3d c5 5e 18 be ef 23 e0 3c 62 3f 7f bb
       0.08819904 -0.14879902 0.027360884 -0.0038947691
000110 b7 0a 43 3c 85 c8 a3 3d d5 4a 00 bb 37 76 f0 3d
       0.01190441 0.079972304 -0.0019575853 0.11741298
000120 65 dd 48 3e a0 9c 81 3d 7c 4b d8 bc 3e ee 15 be
       0.19615705 0.06328702 -0.026403181 -0.14641663
000130 7c 3a dd 3c 26 69 9f 3d 1a 48 4e 3e 26 7d ad bd
       0.027005427 0.07783727 0.20144692 -0.08471136
000140 22 36 da 3d 39 b8 23 3c e4 cd a1 bd 0d b1 e3 bc
       0.10654856 0.009992653 -0.07900599 -0.027794385
000150 5f 4b ee bc 93 81 be 3d 99 7c 9f bd 2e 0a 98 3d
       -0.029088674 0.09302058 -0.07787437 0.074238166
000160 ba 34 1e bd 40 80 60 3e 51 c8 f7 3d 1e 7d 07 bb
       -0.038624503 0.21923923 0.12098754 -0.002067394
000170 a9 bf 98 bc 26 f8 32 bd af 36 7e 3e da ce 02 be
       -0.018646078 -0.043693684 0.24825548 -0.1277422
000180 9e 28 1f bd d4 d7 5f 3d 89 d7 55 3e 20 40 e1 bd
       -0.038857095 0.05464919 0.20883001 -0.10998559
000190 03 31 19 3e d7 a0 ad bd 90 08 a2 3e df 5d d6 3c
       0.14960103 -0.084779434 0.31647158 0.026167808
0001a0 15 dc 50 3d 05 93 1d bd fc 55 38 3d 16 c6 24 be
       0.050991137 -0.038470287 0.045003876 -0.16091189
0001b0 8e 08 5c 3d e6 b4 d5 bd e1 19 b3 3d f0 44 9d 3d
       0.053719096 -0.10434894 0.087451704 0.076791644
0001c0 41 f8 11 bd 0f 89 0e bd ac a7 f7 3d 9b 5b 19 3d
       -0.035637144 -0.034798678 0.12092528 0.037440877
0001d0 13 fd 57 3e c4 21 b9 3d 67 b1 d5 3c 92 af 14 bd
       0.21092634 0.090396434 0.026085569 -0.03630025
0001e0 a3 db 99 3d 3d 00 a3 3d eb 89 49 bd 64 dd 5c 3c
       0.075125955 0.0795903 -0.049203794 0.013480518
0001f0 a8 d4 08 3b b2 02 61 be 6f 84 e6 bc 53 f3 c1 3c
       0.0020878706 -0.21973684 -0.028139321 0.023675596
000200 36 2c 31 3d 95 d6 a1 3d 78 50 a4 bd 41 3a ab 3c
       0.043255053 0.079022564 -0.08023161 0.020901801
000210 66 e4 9f 3d 21 49 af 3d d8 5c 90 bb b4 77 49 3e
       0.078072354 0.0855887 -0.004405599 0.1967457
000220 66 c7 24 3e e0 32 4b 3d ed d7 a0 bd c2 6b f9 bc
       0.1609169 0.049609065 -0.078536846 -0.03044689
000230 43 cc ed 3d b0 b0 6b bd f1 3f bb bd 8d 7e cf 3c
       0.116112255 -0.05754155 -0.09143055 0.025328899
000240 23 e4 03 be 7c c7 2c 3d 68 7a c5 3b f2 23 20 bc
       -0.12879996 0.04218243 0.006026555 -0.009774195
000250 26 0f aa 3d e4 55 2f 3d 06 bb b1 bd 2f 77 90 3d
       0.083036706 0.04280652 -0.0867825 0.070539825
000260 4e 81 1a bd b5 5e f9 3c 02 7b 26 3e 86 9b 6a 3d
       -0.03772097 0.030440668 0.16257861 0.057277225
000270 28 50 f0 bd 87 f5 64 bd e2 22 a2 bd 30 8e 73 bd
       -0.117340386 -0.055898216 -0.079168096 -0.059461772
000280 56 13 3f bd 40 3f 61 3e d6 2f e8 bd 03 3e 05 3e
       -0.0466493 0.21996784 -0.11337249 0.13011937
000290 b8 22 de bc 8b 29 5e be b7 bb a5 bd 43 cf 0b be
       -0.027116165 -0.21695535 -0.080924444 -0.13653283
0002a0 f4 05 71 bd 40 b9 17 3e f2 b2 9b 3d a0 aa 43 3e
       -0.058843568 0.14816761 0.076024905 0.19108057
0002b0 96 27 62 3d 1d 49 22 3d 16 62 97 bc 86 a8 13 be
       0.055213533 0.039620508 -0.018479388 -0.14419755
0002c0 11 79 52 3e f2 aa 1f be a4 95 a3 bd 93 5c 82 bc
       0.20553996 -0.15592554 -0.07987526 -0.015913283
0002d0 d8 3f 9f bd 78 20 bb 3d 3a 72 87 3d 1c 6d b4 3c
       -0.07775849 0.09137052 0.06613584 0.022024684
0002e0 2d 28 0f 3b 9e 3f de 3c 13 ee 0d be dd af c7 3d
       0.0021844015 0.027129944 -0.1386035 0.0975034
0002f0 19 21 66 3e a5 a6 f1 3d 6b ac b8 3d b2 6a 19 be
       0.22473563 0.11799363 0.09017261 -0.14982107
000300 66 f8 c8 3b d5 d0 b7 3d cc 18 8c bb 89 7a c0 3c
       0.006133127 0.089753784 -0.004275417 0.02349593
000310 f9 15 7e bd 21 09 d1 bd 6c b3 66 3e a3 80 10 be
       -0.062032674 -0.10206819 0.22529382 -0.14111571
000320 3b cc c8 3d 8d 85 07 be a1 fb 15 be ec ae c5 3c
       0.09804579 -0.1323454 -0.1464677 0.02413126
000330 3b ac 19 be 71 c5 1b 3e 4e 38 5e bd 0a 23 37 3e
       -0.15007107 0.15212037 -0.054252915 0.1788446
000340 31 27 4a be 16 7b 44 bd aa 55 35 be 62 1b 3f bd
       -0.19741513 -0.047968946 -0.1770846 -0.046656974
000350 f9 ef de bc 35 1a b1 3d a0 e5 0b bd d7 50 45 be
       -0.027214037 0.08647577 -0.034154534 -0.19269119
000360 9a 7d f7 3d 7d 97 0a bd cf d2 f4 3c 71 69 0e be
       0.120845035 -0.033835877 0.029885678 -0.1390741
000370 b7 b3 88 bd 9a 6e 83 3e 83 53 9f 3c a5 ab 5e 3c
       -0.06674903 0.2567032 0.019449001 0.013590728
000380 ef 5e 85 3d 36 cc 43 be ad b8 65 bd ef 40 e1 3b
       0.06512248 -0.19120869 -0.056084324 0.0068741958
000390 3a b4 cf bc 63 32 9a 3d 48 47 0d bd 68 e9 89 3d
       -0.025354493 0.07529142 -0.034491807 0.06733972
0003a0 b6 5f a2 3d ec 79 fa 3d 51 c9 18 3d ce 9f 3f bc
       0.07928412 0.12230286 0.037301365 -0.011695815
0003b0 b3 04 36 bd c1 f5 9d bc 4e 2b ac bd 4e 82 d2 bc
       -0.044438075 -0.019282224 -0.08406697 -0.0256969
0003c0 66 23 b5 bb 58 c2 0b 3e 9c 7c 55 3d 0a fb b6 3d
       -0.0055279015 0.13648355 0.05212079 0.08934601
0003d0 5a 6b 5f 3d e3 da 74 3d c2 82 8c 3c 0f 81 51 3e
       0.054545738 0.05977906 0.017152194 0.20459388
0003e0 25 08 a7 bc f7 ee f2 3b 55 82 2c 3e af a2 3c bd
       -0.020389626 0.0074137407 0.16846593 -0.046053585
0003f0 82 4f 51 be ab 29 10 be 87 c6 8a be 84 50 00 3d
       -0.20440486 -0.14078395 -0.2710459 0.031326786

resnet.layers.4.layers.4.weight f4 [8]
000000 0f 53 5c 3f a0 fb 7a 3f 50 88 88 3f bb a7 84 3f
       0.8606424 0.980402 1.0666599 1.0363687
000010 a6 4a 84 3f 31 e5 91 3f 98 12 8d 3f 3b 4f 86 3f
       1.0335281 1.1398069 1.1021299 1.0492929

resnet.layers.4.layers.4.bias f4 [8]
000000 1f 7b 58 3c 8e 0e ea bd 19 4f 58 3d 12 67 d1 3d
       0.013212948 -0.11428557 0.05280981 0.10224737
000010 2f 35 e4 3c 79 9d 1a be df ff 47 bd 0b d4 35 be
       0.027857391 -0.15099134 -0.048828002 -0.17756669

resnet.layers.4.layers.4.running_mean f4 [8]
000000 2f 11 f4 be a5 cc 02 3f bd 95 12 bc b0 cb 9d 3e
       -0.4766936 0.5109351 -0.008946833 0.30819464
000010 de da fe 3c fc 1c 86 3f 79 43 77 3f 0d d3 21 3f
       0.031110223 1.0477595 0.9658733 0.6321266

resnet.layers.4.layers.4.running_var f4 [8]
000000 a5 75 74 3f 02 4f 00 3f 9a a8 bf 3e 15 07 12 3f
       0.9549201 0.50120556 0.3743332 0.57042056
000010 46 13 02 3f be 7c 85 3f 58 21 3a 3f 66 ec 21 3f
       0.5081066 1.0428693 0.7270713 0.6325134

policy_layers.layers.0.weight f4 [16, 72]
000000 da 3c cc 3d bf 1a 1f 3e 83 a6 13 be a4 73 0c be
       0.09972544 0.15537547 -0.14418988 -0.13715988
000010 58 f8 0c be 27 39 6d be c6 59 02 ba dc 9d ef 3b
       -0.1376661 -0.23166333 -0.0004972484 0.0073125195
000020 c1 6e 57 bd 7b e2 29 be 4f 32 15 3d c4 17 a7 bc
       -0.052595858 -0.16590302 0.03642493 -0.020397075
000030 c6 8e 2a 3d f9 dd b2 3c b4 6d d5 bd 11 c5 e3 ba
       0.041640066 0.02183436 -0.10421315 -0.0017377456
000040 64 70 e0 bd 8c 4c 79 be b4 9b fc be 31 04 4e be
       -0.10958937 -0.24345607 -0.49337542 -0.20118786
000050 18 4f 56 bd e0 23 81 3c 1b 5f 04 bd 83 a5 9a be
       -0.052321523 0.015764177 -0.032317262 -0.302044
000060 00 df 4b be 20 ce 3f be 83 35 62 3e 43 cb d5 bd
       -0.19909286 -0.18730974 0.22090726 -0.1043916
000070 96 8f 7b 3d d3 62 5d bd fb b0 bd be ab 3e 00 be
       0.06141623 -0.054049324 -0.37049088 -0.12523906
000080 f8 63 4f be 5e 62 13 3b 3f c9 b0 3a bf 0c a4 3c
       -0.20252979 0.0022489051 0.001348771 0.020025609
000090 89 59 45 be e3 ba 7c be a0 c8 07 3e fd bc 0e 3e
       -0.19272436 -0.24680667 0.13260126 0.13939281
0000a0 20 c6 3e be ec e0 f9 bd 53 7a 37 3e 0a 00 b9 3e
       -0.18630266 -0.122011036 0.17917757 0.36132842
0000b0 aa be 6c be f7 72 7c be 66 96 79 3e 5b 10 50 3e
       -0.23119608 -0.2465323 0.24373779 0.20318739
0000c0 5b 22 df bd 85 c5 50 3d 7b fc f2 bd 1d 81 9f 3d
       -0.10895225 0.05096962 -0.11864563 0.07788298
0000d0 4b c8 c8 3d 5f 1e 8c bd 3d 04 65 be 5a 23 76 3c
       0.09803828 -0.0684173 -0.22364898 0.015023077
0000e0 97 6f 1a be c8 a6 30 be 05 2c 86 3c fe b0 44 bc
       -0.1508163 -0.17251122 0.016378412 -0.012005089
0000f0 25 a3 43 bd be dc 2f 3e 81 51 9c be 2d d3 c3 3e
       -0.04776301 0.1717405 -0.30530933 0.38247052
000100 ed 81 ac bd e4 c0 fd bd 40 b7 61 be ee 2b cf 3d
       -0.08423219 -0.123903066 -0.2204256 0.10115801
000110 e4 c9 3c be 8d 22 12 3e 82 28 88 bd 29 79 61 be
       -0.1843639 0.14270993 -0.06648351 -0.22018875
000120 c4 8b af be 5a 4c 43 3e b5 a5 97 be da fe 74 be
       -0.3428632 0.19072095 -0.29618612 -0.23925343
000130 87 56 11 3e 39 0b 10 3e f7 8f c3 3d 8e 5c ed 3d
       0.14193164 0.14066781 0.095489435 0.11589919
000140 8c 04 66 be 56 5b 8f 3e e8 48 9e bd 79 de c4 3e
       -0.22462672 0.2799937 -0.077287495 0.38450983
000150 b5 b5 30 3d 97 f1 23 be 2d 45 3a 3e 2d e7 af 3e
       0.04314204 -0.16010128 0.18190451 0.3435606
000160 c0 e9 83 3e e4 e7 c5 3e ca f6 a3 3d 6c 44 15 3f
       0.25764275 0.3865348 0.08006056 0.5830753
000170 1f 1d 98 be 6a 4b b9 bc 82 00 6e bd 18 8e d7 3e
       -0.29709718 -0.022618968 -0.058105953 0.42100596
000180 80 7c 11 3d 51 3a 4c 3e 72 a4 8f be 30 07 1f be
       0.035519123 0.19944121 -0.2805515 -0.15530086
000190 7e 0e 81 bc 03 d9 21 3e cc 3c 28 3d 12 55 8a 3e
       -0.01575398 0.1580544 0.041073605 0.27018028
0001a0 e3 84 92 be 48 d7 57 bd 3a 18 e4 3d 45 68 94 3c
       -0.2861701 -0.052695543 0.11137433 0.018116126
0001b0 7e df ad 3b aa 43 b0 bd 41 a6 b3 be de c7 88 bb
       0.0053061834 -0.08606656 -0.3508778 -0.0041742167
0001c0 ea 87 8c be 72 16 01 bc e4 d1 f6 bd b7 aa 60 3e
       -0.27447444 -0.007878887 -0.12051752 0.21940123
0001d0 81 3b 6b 3e 17 55 3b 3d 8d 68 6f 3e 39 1e 88 bd
       0.22971918 0.045735445 0.23379727 -0.066463895
0001e0 4a c0 cb bc 92 82 44 3e b6 e9 84 be 41 53 ab 3e
       -0.024871964 0.19190434 -0.25959557 0.33461955
0001f0 ea 22 08 3f 57 d9 64 3e 9d 5e 29 3e 01 cb 04 3e
       0.53178275 0.22348534 0.16539998 0.12968065
000200 08 f6 db bd 4c 8f 48 3f ee 91 20 3e 3c 4e 72 3d
       -0.10740286 0.78343654 0.15680668 0.05915664
000210 21 bc 5e bd 3a 46 80 3e 95 67 fe 3d 12 5e 0c 3e
       -0.054378632 0.2505358 0.124221005 0.1370776
000220 2b 80 2c bd b2 14 40 3e 0f 2d 6d 3e e1 28 1b 3e
       -0.042114418 0.18757895 0.2316172 0.15152313
000230 37 90 7e 3d 7b 8b a3 3e 02 d9 ac 3e 72 ed 86 bd
       0.062149253 0.31942353 0.33759314 -0.06588258
000240 b9 1b 87 3e 9b dc 54 bd f9 e7 23 be 08 0a 8b bd
       0.26388338 -0.0519682 -0.1600646 -0.06789023
000250 30 62 8f 3d 67 6a 0c 3d b8 0e ff ba 8f b2 80 bd
       0.0700115 0.03428116 -0.0019459343 -0.06284057
000260 c3 03 b0 3e 4e a4 d1 bd 92 b1 75 bc f8 59 19 3f
       0.3437787 -0.10236417 -0.014995949 0.59902906
000270 c9 62 c7 bd 6d 9c 69 3e b1 6f c0 3c 14 5f 7e bd
       -0.09735639 0.22813578 0.023490759 -0.062102392
000280 69 0c 0b 3e 07 29 5b bd 3b 66 a9 3e a1 b8 96 be
       0.13578953 -0.053505924 0.33085808 -0.29437736
000290 a4 e9 d0 3e 99 19 79 bd ea ac 92 bd a5 f3 8f 3e
       0.40803254 -0.060815427 -0.07161887 0.28115574
0002a0 7a 64 35 3e a7 e1 42 be a9 01 42 be 2d 16 56 bc
       0.1771411 -0.19031392 -0.18945946 -0.013066811
0002b0 d1 38 73 3e 88 4b 8b bd bd 91 e3 bd 60 8e 89 bd
       0.23752142 -0.06801516 -0.11111782 -0.06716609
0002c0 76 7f 46 be 7c f8 42 3d 0e 93 45 be 45 44 7b be
       -0.1938456 0.047600254 -0.19294378 -0.24537762
0002d0 9c 4d 67 3c d0 38 ed bc 23 72 80 be 55 ed 32 3e
       0.014117625 -0.028957754 -0.2508708 0.17473347
0002e0 6c e8 17 bc 92 85 b7 be 5c 5f d2 bd aa dd 47 3d
       -0.009271722 -0.35844094 -0.102720946 0.04879538
0002f0 b4 38 e1 3e 5d 61 41 3e 35 fa e4 3a 7c ef 47 3d
       0.43988574 0.18884797 0.0017469587 0.048812374
000300 33 82 03 bc 59 20 45 be b6 64 83 3c 44 10 c9 bd
       -0.008026647 -0.19250621 0.016039234 -0.098175555
000310 8b 4f 9e 3e 0f fb bc 3d fd 4f 10 3e 8b dc eb bd
       0.3092006 0.09227573 0.14093013 -0.115166746
000320 f7 0e be 3d 58 ca c2 3d 6b 7b e5 3e 3e 66 8c 3d
       0.09280198 0.0951125 0.44820723 0.06855439
000330 a7 e1 00 be 75 6d c3 3e 69 09 2c 3e 7a c9 b9 3d
       -0.1258608 0.38169447 0.16800465 0.09071632
000340 67 44 2f bd 4b 00 7e bd f7 af e2 bd 8e 12 55 3e
       -0.042789843 -0.062012 -0.11068719 0.2080786
000350 5b e1 f8 3d 6f 6e e0 bc de 29 91 3e 1f 65 21 be
       0.12152358 -0.027396409 0.28352255 -0.15761231
000360 42 01 bd 3d 46 7f af be 06 ad 77 3e 12 d8 5e 3e
       0.092287555 -0.3427679 0.24187097 0.21762112
000370 68 12 d2 bd 75 ff ae 3d e4 29 f9 bb 2d cf 01 be
       -0.10257417 0.08544818 -0.0076038707 -0.12676688
000380 14 cb 61 bd ea 17 e9 bc af b1 a9 3c 9a 5d fe bd
       -0.05512531 -0.028453786 0.020714609 -0.12420197
000390 19 c0 bf bd b5 1e 20 3e 06 16 43 3e 38 0c c3 bb
       -0.093628116 0.15636714 0.1905137 -0.0059523843
0003a0 ca 9c 41 3e a8 25 25 be c4 6c e6 bc ee 54 d2 3c
       0.18907467 -0.16127646 -0.028128035 0.025675263
0003b0 af 8f 47 be 3f 62 6e 3e b0 6e e5 3e bb 7a c0 be
       -0.19488405 0.23279665 0.4481101 -0.37593636
0003c0 d8 93 96 3d 1d 91 83 3d a1 19 1d 3f 23 34 0a bc
       0.07352418 0.064241625 0.6136723 -0.008435282
0003d0 14 03 84 3d 28 92 14 bf bd dd a7 3d ae 22 92 3d
       0.064458996 -0.58035517 0.0819659 0.07135521
0003e0 8c 6c 91 3d 5d f4 a9 bd bb d1 38 3d dc de a6 3d
       0.07100782 -0.08298562 0.04512189 0.08147976
0003f0 b8 8a 8b be 1d 02 46 3e 76 2a 95 bd 5c bb 37 bd
       -0.27254272 0.19336744 -0.072834894 -0.044856414

policy_layers.layers.0.bias f4 [16]
000000 4f fd 10 bd 3f 38 72 bd 5c 2a b9 3c c1 31 f2 bc
       -0.035397824 -0.05913567 0.022603206 -0.02956474
000010 67 d0 0b 3d a9 ad 4b bd 4b ad d4 3d 94 e1 df 3d
       0.034134295 -0.049726162 0.103846155 0.109316975
000020 bc ed b8 3c 43 0b e0 3c b9 c7 9e bd db 5a 18 bd
       0.022574298 0.02734912 -0.07752938 -0.03719602
000030 cf c3 a1 bd 12 2e dc 3c ed 6a 96 bc 3b 18 00 3d
       -0.07898676 0.026877437 -0.018361533 0.031273108
