RL/TicTacToe/pretrained/alphazero_model.pth (torch_old, 30554 bytes, 36 tensors)

resnet.layers.0.weight f4 [8, 3, 3, 3]
00000000: 1938 a03d 13ad e1bd 5f93 97bc b1ee ddbe
00000010: da93 bd3e 9597 8e3e bee3 303d 12ed 873e
00000020: c5c1 32be 80a9 89be d8cf 21be e445 193e
00000030: 90df 083d dbbe 6e3e 9c31 4fbe a7a8 8abe
00000040: 4207 ef3d 0008 173e a4e0 6e3c cbde 8f3c
00000050: 9556 02bd eb35 63be caee 52be 3cb6 213e
00000060: db80 1d3e ad52 17be 751d 0f3e 4e2b babc
00000070: ff9a 8bbb 8f6a 283e b47e 87be 900f 12be
00000080: 63dd cc3d 7934 4fbe d9a8 3fbe 1912 6bbe
00000090: 973c 19be d4ac 95be 814d 81bd cf8a cb3e
000000a0: 2af6 b53e c132 953d 5fea 723e aa3d ff3d
000000b0: 8518 c1be 285c 793d 7a75 bd3c 8fc7 523e
000000c0: 7268 cd3d fde8 a8bd 7d35 843c bb76 003e
000000d0: 47ea d2bd cdbe be3a 971c d5be 2e0c 97bd
000000e0: 6b36 a63d 750c d83d 16e3 373d e678 3bbe
000000f0: a455 d8be fadf acbd 4ab4 943d c8f9 923e
00000100: ee87 9d3d 0454 b2bd 4436 243e e633 98bd
00000110: ce56 40be 4c96 123e bf69 7cbe fb8e 9ebe
00000120: e468 adbe fe0a 97bd 2d75 ef3d b040 25be
00000130: 8c09 35bd 7710 123e 5cf0 ae3d 2171 1a3e
00000140: 8861 40bd 0b60 5c3d 0c7d 61be 3de3 123e
00000150: 7fea 183e 8992 b03e f710 7ebe 3892 afbe
00000160: 6a7c c93d add1 d53c f423 633e 21ef 91be
00000170: ceb2 3fbe 1e1d 51bd 0b72 d8bd 2787 133e
00000180: 248b 1abe 5df1 463d 4a6b 003d dd41 81bc
00000190: f8cc 4ebe 6d98 fbbc 6f55 623c 1df2 1bbe
000001a0: e017 cd3d c442 f83d 9d44 7e3e bbf3 1fbe
000001b0: c68b 41be 961f 513e 8660 6dbc b72c 3f3e
000001c0: 44b9 8a3e 4d5b 443e d559 7ebe 1f36 df3d
000001d0: 4402 763c 5d5f 1abe ea14 e3bc 0673 873e
000001e0: 7aea 4bbd 4a86 1cbe 0ba6 fcbd 2442 bf3d
000001f0: 70c0 b5be 316d ea3e 4002 66be ee95 423e
00000200: ba97 91be e18b f13d 1eec 563d ea84 11bb
00000210: 030c 883d 923b 903b d0e7 8fbd bdaf 913e
00000220: ede3 11bd e58b 8a3e 5762 453e 60fe 8b3d
00000230: 5647 a2be bad1 933d 24fb c5be 7543 813e
00000240: 4df5 36be 8c6f 81bd 10f0 ca3c 0317 e6bb
00000250: c2e6 b53d aa5a 5a3e e237 023d c9ee 6fbe
00000260: 041b f93c 19f1 9cbe 9471 6d3d 5d8a 0b3e
00000270: f818 d1bd e1a7 08be a69a 4e3e b5a4 863c
00000280: 7447 653e 23e2 3d3e 26be 813e b269 89be
00000290: f3ac 7b3e 1327 3f3d cd2b 1abe aa22 47bd
000002a0: 328c e7bc 1ee4 d03e 8fe8 e03d 4c21 6ebe
000002b0: 71d7 b7be aa1f 78bd b35d 1e3e d949 97bd
000002c0: f1da f1bb 5251 b33d ba04 10bd b69d 0c3d
000002d0: 1486 423d 845a c03d f7d6 81bd 5618 a73d
000002e0: e133 713d a459 3d3e c0a2 783b 7585 863d
000002f0: fb21 883d 1673 53be 04e8 683e fd80 d73d
00000300: 0bad e5bd 40d1 1bbd c894 6f3e 8b50 49bd
00000310: b5fc d7be 9cb7 373e 4395 833e 90bd 59bd
00000320: be79 423d ac5e 613e 17ce cf3d a512 34bd
00000330: 07ec ffbd 6718 4e3e 815f 093e b3dd 263e
00000340: 4e1d e93d 819b 3cbe b27d e53d 105e 4d3d
00000350: b7c2 1a3d 7f88 bf3d d17f f1bd 390e 303d
0.078232 -0.110193394 -0.01850289 -0.4334617 0.37026864 0.27850023 0.043185942 0.26548058
-0.1745673 -0.2688713 -0.15801942 0.14968067 0.03341633 0.23314993 -0.20233768 -0.27081797
0.11671306 0.14749146 0.014579926 0.01756229 -0.031820852 -0.22188537 -0.20598903 0.15792173
0.15381186 -0.14777632 0.1397608 -0.022725727 -0.0042604203 0.16446899 -0.26463854 -0.14263749
0.10003164 -0.2023486 -0.18716754 -0.22956122 -0.1496452 -0.2923342 -0.06313611 0.3975434
0.3553937 0.07285071 0.23722218 0.12462933 -0.3771402 0.060878903 0.023127306 0.20583938
0.10029687 -0.08247564 0.016138786 0.12545292 -0.10298591 0.0014552713 -0.41623375 -0.0737537
0.08115848 0.10549251 0.0448943 -0.18307838 -0.4225284 -0.08441158 0.0726095 0.28706193
0.07691942 -0.08707431 0.16036326 -0.07431774 -0.18783113 0.14315146 -0.24649714 -0.3096846
-0.33869088 -0.073751435 0.116922714 -0.16137958 -0.044198558 0.14264093 0.08541939 0.15082218
-0.046968013 0.05380253 -0.22020358 0.14344497 0.14933203 0.34486797 -0.24811159 -0.34291244
0.09838183 0.026100958 0.22181684 -0.28502753 -0.18720552 -0.05105316 -0.10568627 0.14407025
-0.1509214 0.048570026 0.03135232 -0.015778476 -0.20195377 -0.03071233 0.013814314 -0.15229078
0.100143194 0.121221095 0.24830861 -0.1562032 -0.18900976 0.20422205 -0.014488345 0.18669401
0.2709447 0.19175453 -0.24838956 0.10898995 0.015015189 -0.1507544 -0.027719934 0.26454943
-0.04978416 -0.15285602 -0.12336358 0.09338787 -0.3549838 0.4578643 -0.22461796 0.19002506
-0.2843607 0.11794258 0.052471273 -0.0022204467 0.06642916 0.0044016326 -0.070266366 0.2845439
-0.035617758 0.27059856 0.19275795 0.068356276 -0.3169505 0.072177365 -0.38668168 0.25246778
-0.17867012 -0.06320104 0.024772674 -0.007021786 0.08881904 0.21323648 0.031791575 -0.23430933
0.03040839 -0.30652693 0.057969645 0.13627 -0.102098405 -0.1334529 0.20176181 0.01643596
0.22390538 0.18543296 0.25340384 -0.26838452 0.24577694 0.046668123 -0.15055771 -0.048617043
-0.028265093 0.4079904 0.10981857 -0.23254889 -0.35906556 -0.060577072 0.15465431 -0.07387132
-0.007380836 0.08755745 -0.035160758 0.034330092 0.047491148 0.093922645 -0.063398294 0.081589386
0.058887366 0.18491226 0.0037938803 0.06568424 0.06647106 -0.2064937 0.22744757 0.105226494
-0.11214646 -0.038041353 0.233966 -0.049149077 -0.42184988 0.17941135 0.25699815 -0.053159297
0.047479384 0.2200877 0.101467304 -0.043963093 -0.124961905 0.20126496 0.13415338 0.16295509
0.113825426 -0.18418695 0.11205615 0.050138533 0.03778335 0.093522064 -0.11791957 0.042982314

resnet.layers.1.weight f4 [8]
00000000: acac 8d3f a250 5b3f 2a43 7b3f a749 863f
00000010: 6b25 923f f37d 543f aa89 843f 61b0 833f
1.106832 0.8566991 0.9814936 1.0491227 1.1417669 0.83004683 1.0354512 1.0288202

resnet.layers.1.bias f4 [8]
00000000: cd5d 51bd 78b9 b1be 1708 ddbd 9434 953d
00000010: 0d8b 8b3c 11c4 43be b947 37bd 6d80 9abe
-0.051114846 -0.34711814 -0.10792559 0.07285419 0.017034078 -0.19117762 -0.044746134 -0.30176106

resnet.layers.1.running_mean f4 [8]
00000000: ff1a 6fbd c089 36bd 03d7 46be 92c8 22bd
00000010: 431e c63d 70ee 853d d43c 283e 1e8d 1f3e
-0.058375355 -0.044564962 -0.19417958 -0.03974206 0.09673741 0.06539619 0.16429454 0.15581176

resnet.layers.1.running_var f4 [8]
00000000: e6dc 793e 1c86 a53d d263 243e 168d c73d
00000010: 2be1 bf3d 5ec0 c13d c168 203e d880 c33d
0.24400672 0.0808222 0.16053703 0.09743707 0.09369119 0.09460519 0.1566496 0.09546059

resnet.layers.3.layers.0.weight f4 [8, 8, 3, 3]
00000000: 5853 4abd 1211 46be 9ddc 0c3e 854d 92bd
00000010: 4dfb c2bc 0a60 afbc 1069 4bbe 74a8 3e3e
00000020: 49ed 94be 31bf 993e a202 acbd 599b 983e
00000030: 71c2 00be ddac 663d d626 03be e057 0cbd
00000040: 3422 d6bb bcee 99bd d7cd 313e 4761 2ebe
00000050: 0bcb 1b3d 3f15 3b3d a0f7 0fbe 789b db3d
00000060: da37 05be ea18 723d 1366 42bd ba7d 4c3c
00000070: 2caf 7d3d 2c9b abbc 47b1 19be 9f49 a0be
00000080: 17a7 dabd fbac bb3c c381 b2bd b48f b4bd
00000090: 3cda 41bd 96e5 6dbe 76a6 7d3d 7250 653c
000000a0: e3d8 f83d 8b10 e0ba 4501 b8be 97d5 953d
000000b0: 2cc9 213e f2b9 373c 285c a8bd cf56 0e3e
000000c0: dfb8 28be 06ad 01bc 94ad 51bd f82d e93c
000000d0: b0f5 d33d e2c4 10bc 84db e7bd 88b5 b0be
000000e0: edab 47bc a6f0 583d 338c 3c3d 35f2 10bd
000000f0: 4d64 6a3e 16e6 06be b2f4 35bd 2396 e73c
00000100: 315d bf3d ee80 2c3e 84ce 19be c906 903d
00000110: 9595 56be f11e 14bd c9d2 0ebe 9379 583d
00000120: 37a5 d3bd 10c3 203e 4c75 663d 2e49 10be
00000130: 0ef0 233d 9589 c93b 1944 e7bd a96c 253e
00000140: 4e9d 5bbd dd54 103e 212b 27be 4608 313c
00000150: e0b9 e93c 4c14 77bd 055c 6a3d 160b 4b3e
00000160: a9d0 20be d9a8 ce3d 535b cfbc ae92 773e
00000170: f1f7 1cbc 9fb7 803d ec98 e7bd 921a 0e3e
00000180: f9db 64bd f272 173e ca9f 433d d7cb 223e
00000190: 799f 023d e854 913c 4140 12be 632d 9e3e
000001a0: 7dd5 b8bc ca0b 983c fb5a a63d 6c69 4ebe
000001b0: dbe3 633d 225a 9c3c 2ba5 00be b0bf c93c
000001c0: 560f 7fbe ed25 843d 4cd5 dc3b 0c22 153e
000001d0: d0b3 b4bd 5d9e 44bb b4b7 b6bd a158 753d
000001e0: a1e9 19be e572 fa3b ca9e 8e3d a615 743c
000001f0: c2dd c13d 5265 5b3d f4e0 9fbe b508 83be
00000200: 6a68 63be 80c6 89bd a217 10be 00c6 35bd
00000210: 621b 4bbc 843a 3b3d ea51 1f3e ea21 4abb
00000220: 8ccd 3fbd a9de 4a3e 87e7 333e 1110 89be
00000230: 26d5 503e b767 e03d b93f 6bbe 2a55 28bd
00000240: 4a7c 21bd 0f0b 5ebd d97e d9bc 08b3 96bc
00000250: 4985 c7be 8d62 b53d dae3 5dbe 73c6 523e
00000260: b5bc c03c bc09 36bd 2078 643d 5d81 463e
00000270: f6b8 97bd dc7e 173e 7bcf a03d 678e 6ebd
00000280: 15a8 26bd 24d4 2d3d 8a35 34be 1106 e83d
00000290: a41a a53d f65f bbbd 4d45 4d3d b6fd 723d
000002a0: 08ec a63d ca95 0ebd 6274 3ebe fa48 6bbd
000002b0: 916e cebd 1d99 1e3c 4ded 913d 99cb d9bc
000002c0: c642 cfbd 6b9c 2cbe 57fa 6e3d 823b 53bd
000002d0: 5513 0f3e 2281 19be 8cd0 333e db9c a9bc
000002e0: bc53 3dbe ffdc c6bd bd6a f8bd a9d4 8c3e
000002f0: 4e36 7dbd d7d1 09be 8daf ee3d abcb 6cbc
00000300: e4e2 ba3d 44db a63d aa71 0c3e b943 55bd
00000310: 3b9c 4dbd 5dd3 f0bd 0504 2cbe 0273 cbbd
00000320: bfd3 5c3b 8bb7 1abc e63b 98bd 74e2 e43e
00000330: 0d85 c7bd a61b 23be de30 0fbd 19dc 04be
00000340: 63b0 5d3c 1ad4 dc3c 1e99 7abc d0c6 053d
00000350: f8ad 0f3d dd30 cd3d b3a5 213e a3e6 903e
00000360: 1a93 07be a631 273e 67ac babd 64d6 953c
00000370: 27cd 97be f1d1 49be 4370 223e e075 033d
00000380: bf56 433d a77e 623d 6de9 a63d 513d 87be
00000390: 9027 883c a71d 60be fe7c 08be 4afb 373e
000003a0: 31ba 6abe 8981 6bbe c732 a7be cf18 023e
000003b0: d359 58bc bd08 a83d 12b5 e03c 1dd2 19bd
000003c0: a70f 5a3e c288 de3d 7e93 a1bd 6872 4ebd
000003d0: acc2 aa3d 584e 34be 8513 38be ff49 34bd
000003e0: 9b51 ca3d 6442 7c3d 39a2 593d 3b37 3fbe
000003f0: 0e7e 23be 1a93 2b3d f878 283e 2890 30be
-0.04939589 -0.1934245 0.13756032 -0.07143692 -0.02380147 -0.0214081 -0.19864297 0.18618947
-0.29087284 0.3002868 -0.0839894 0.2980602 -0.12574174 0.0563172 -0.12807783 -0.03426349
-0.006534839 -0.07516238 0.17363678 -0.17029296 0.038035434 0.04567456 -0.14059305 0.10723013
-0.13009587 0.05910579 -0.047460627 0.012481147 0.061934635 -0.020948015 -0.15009032 -0.31306168
-0.10676401 0.022909632 -0.08716156 -0.08816472 -0.047327265 -0.23232111 0.061926328 0.01399623
0.12150743 -0.0017094774 -0.3593847 0.0731613 0.15799397 0.011213766 -0.082207024 0.13900302
-0.16476773 -0.007914787 -0.051190928 0.028464302 0.103495955 -0.008836003 -0.11321166 -0.34513497
-0.012186986 0.052963875 0.046032142 -0.035387237 0.22889824 -0.13173708 -0.044422813 0.028269833
0.09343947 0.16846058 -0.15020186 0.07032544 -0.20955499 -0.03616232 -0.13947596 0.052850317
-0.103342466 0.1569941 0.056264207 -0.14090416 0.040023856 0.0061504343 -0.112922855 0.16154732
-0.053616814 0.14094873 -0.16325046 0.010805195 0.028531015 -0.06032209 0.057216663 0.19828448
-0.15704598 0.10090799 -0.025312101 0.24177048 -0.009580598 0.06285023 -0.113084644 0.13877323
-0.055873845 0.14789942 0.04775981 0.15898071 0.031890366 0.017740682 -0.14282323 0.30894002
-0.022562737 0.018560309 0.08122822 -0.20157403 0.05563722 0.019085947 -0.12563007 0.024627537
-0.24908194 0.06452546 0.006739294 0.14563769 -0.08823359 -0.0030001618 -0.08921757 0.059898976
-0.15030529 0.007643091 0.0696388 0.0148977395 0.09466125 0.053563423 -0.31226313 -0.2559258
-0.222078 -0.06727314 -0.14071515 -0.04437828 -0.012396665 0.0457101 0.15558591 -0.0030842968
-0.046826884 0.198115 0.1756879 -0.2677007 0.2039381 0.10957282 -0.22973527 -0.041096844
-0.039425172 -0.054209765 -0.026549743 -0.018395916 -0.38968876 0.08856688 -0.2166895 0.20583515
0.023527483 -0.044442877 0.055778623 0.19385286 -0.074083254 0.14794487 0.07852074 -0.058241274
-0.04068764 0.04243864 -0.17598549 0.11329282 0.08061722 -0.091491625 0.05011492 0.05932399
0.08150488 -0.03481082 -0.18599084 -0.057442643 -0.100796826 0.00968006 0.0712534 -0.02658634
-0.10120158 -0.16856544 0.05834421 -0.051570423 0.13972218 -0.14990667 0.17560023 -0.020704677
-0.18488973 -0.097101204 -0.12129734 0.27505997 -0.061819367 -0.13458954 0.116545774 -0.014452855
0.09125307 0.0814729 0.13715234 -0.05206654 -0.05019782 -0.11759064 -0.16798408 -0.099340454
0.0033695546 -0.009443174 -0.074333 0.4470402 -0.09742174 -0.15928516 -0.034958713 -0.12974586
0.013530823 0.026956607 -0.015295295 0.032660306 0.03507802 0.100190856 0.15785865 0.28300962
-0.13239709 0.16327533 -0.091149144 0.018290706 -0.29648706 -0.19708993 0.15863137 0.032094836
0.04769015 0.055296566 0.08149991 -0.26413968 0.016620427 -0.21886311 -0.1332893 0.17966953
-0.22922589 -0.22998632 -0.32655928 0.12704776 -0.0132050095 0.08204792 0.027430091 -0.037553895
0.21295033 0.10865928 -0.0788946 -0.050402075 0.08337912 -0.17608011 -0.17976196 -0.04401588
0.09878846 0.061586753 0.053133223 -0.18673413 -0.15966055 0.041888334 0.16452396 -0.17242491

resnet.layers.3.layers.1.weight f4 [8]
00000000: 29a8 873f fe30 8a3f c330 823f 0a03 7e3f
00000010: 5481 683f cf7c 8b3f 7619 583f a477 833f
1.0598193 1.0796201 1.0171131 0.9922339 0.9082234 1.0897464 0.8441385 1.0270886

resnet.layers.3.layers.1.bias f4 [8]
00000000: 208f e3bd 8a25 06be ca9a c9be 63fc 31be
00000010: f298 2dbe 2e8c afbd bc39 68be 3f5c ddbd
-0.11111283 -0.13100258 -0.39375907 -0.17381434 -0.16952875 -0.08571659 -0.22678274 -0.1080861

resnet.layers.3.layers.1.running_mean f4 [8]
00000000: bb4c 1cbf 84bd 84be 56b3 15be 2c8e bfbe
00000010: 8a82 d5bd 9884 e9bd 8f0c 983e 043b d8bc
-0.6105458 -0.2592584 -0.14619192 -0.37413156 -0.10425289 -0.114022434 0.2969708 -0.026395328

resnet.layers.3.layers.1.running_var f4 [8]
00000000: f598 a43e 71cb 0d3f bb71 f13e 584b a83e
00000010: d8f5 9e3e bbb5 a03e bbb5 5d3e 09ec b03e
0.32147947 0.5538855 0.47157082 0.32869983 0.3104694 0.3138865 0.21651356 0.3455508

resnet.layers.3.layers.3.weight f4 [8, 8, 3, 3]
00000000: fdd7 6d3c ac15 1fbe e0b5 e23d d663 43bd
00000010: e6f5 ebbc b5c4 b83d 03e5 3ebd 7a5d 843e
00000020: 646a 553d 0a6b a2bd 5738 26be 1ff6 4b3d
00000030: 3ec2 343d bf69 81bd 1e2a 193e c133 1b3e
00000040: 36e1 203e 3451 a23d 661f d33a 0b57 0dbe
00000050: 1589 5cbe 565d babd 5d90 7cbd 18a9 7fbd
00000060: b1ef 69be 78af 823c c7f5 cc3d 8627 b5ba
00000070: fdaf 283d 426d b7bd 3d3b 643e 34cb dc3d
00000080: d70f da3d 0f98 e13d c573 0c3d 5248 143e
00000090: 6c7e babd 4e79 3fbc 5045 f9bc 6604 dcbd
000000a0: 2e55 d53d 10ba eab9 c852 8d3e 1296 bd3d
000000b0: 55ed 19bd 5217 2cbd aca1 c23d 1ebc f53d
000000c0: c7cf 463d 2c03 5a3c 6d64 05be 010a a2bb
000000d0: 3759 a9bb ceef 89bd 5315 87bd 24aa 223b
000000e0: fb58 98be 6057 30be 2cb4 87bd 0a20 8a3d
000000f0: 96ad b83d b521 a3bc 4949 e0bd 9570 0cbe
00000100: adfa 49be dacb 83be b8e2 4e3d 470d 31be
00000110: 2f76 d83d 3250 383e 4965 3fbd 769b ac3d
00000120: 43f0 a6bd dc5c 09be c82a 7fbe 635e 3fbe
00000130: 8284 8abd fda6 953d 77e3 5e3e bed2 07be
00000140: 184a d33d fa6e 923c dc80 2b3e 6fa9 b0bd
00000150: dbfa 2abe dc24 2d3e 6578 17be 4915 173e
00000160: 590a 97bc c39e c73d d3bc 44be 83bf d73d
00000170: 1708 e1bd 9438 b23d 673e 673d d085 90be
00000180: e1f7 b5bc 9b2a 52bd b00b 153e 3534 4f3d
00000190: 40a6 61be 30dc fcbd 1220 28be aacb fabd
000001a0: d1d1 fc3d 96e6 0cbe 0696 743d b842 c4bc
000001b0: 0280 3d3e ba43 c93d 3f2b 23bd 25af c33e
000001c0: 2027 053d 6b69 c9bd a2f3 ebbd c80f ebbd
000001d0: 6ef9 5d3e ecb9 903d 6b73 b6bd cd70 b83d
000001e0: 5a69 20be 203d 573c ef48 62bd adcb d9bd
000001f0: 2347 063e 7187 1a3e 0bee dcbd 95e1 a0bd
00000200: ba59 d03d c1d8 d43c 3ede 4abd 87d6 373e
00000210: 3ca5 12bd 946f 04be c50e 99bd 414a 26be
00000220: cab6 0b3d cffa 3a3e f83c 1fbd 27e9 a43e
00000230: 6e01 c3bd 0991 52bd 130c 313d 6c39 b33c
00000240: c47a f23d f5e3 ab3d c3fa 573e 751a a03d
00000250: 3d89 c9bd abfb c13d 7b15 03bc 3e16 973a
00000260: e15e ac3d 826c a5be 922f 21be 4ef7 253e
00000270: 6b53 5e3d e7ef 903d 3be2 9d3e 0e7f d83d
00000280: 3260 cfbd 33a7 943d 4d7e 4a3d 3d50 64bd
00000290: 2ae0 1f3d 2d6c 37be f4c5 4bbe 5b22 6f3d
000002a0: f6b0 f73d c1ed 313d 1e41 4dbe 58a3 38be
000002b0: 68ba c0bd 9437 753d ef68 7b3c 628c ab3d
000002c0: 4c6e 83bd a3de 72be 3aa2 d53d 11be fd3c
000002d0: 0d94 043d e7f4 613d 62b0 7a3b c99f 1ebe
000002e0: 6189 073e 287f 0bbe 73d5 78bd 132c bbbd
000002f0: edfc df3c 1d33 ce3d 3c1e 54be 33bd ad3d
00000300: 2864 59bc f74f 133e ae6c 32bd ec0b 4e3e
00000310: 033a 853e 8006 093d 2fcc e43d 9f5a 5a3c
00000320: 6b3d 58be 4567 52be 479b 853d 4ee4 ed3d
00000330: 0864 30bd 78d5 cc3d e540 7fbd 07de 5bbd
00000340: dc35 5abd 9ed1 dd3d ed78 52be b6ab 453e
00000350: fec3 7dbd 4d6d b4bb 9031 88be c4ec 96bc
00000360: 01e0 683d 0a4d 263c ba1a cf39 fc83 3f3c
00000370: de9a 69bd 00f9 62bd 6d85 34be f812 4cbc
00000380: d9a1 79be 9f3f 833d 892a bbbd f54a 993e
00000390: c812 fdbc 28b0 11be dc09 fbbb 6eee 4d3d
000003a0: 0652 70be bab0 dfbd 5743 7a3d cb56 6dbd
000003b0: 5e9f d73d c316 1e3e eca6 3e3e 87bf 143d
000003c0: cb7a 02be a379 87be 61f0 1e3d 4d4d 96bd
000003d0: ca58 92bc 4f84 803d edf5 b73b 187c 4b3d
000003e0: 769e 3d3e dde3 61bc 4ef9 173d 3267 8fbc
000003f0: 0d4d 3abe fafd 91bd 52aa bc3d bf38 edbd
0.014516828 -0.15535611 0.11069846 -0.047702633 -0.028803777 0.09021894 -0.04660512 0.25852567
0.052103415 -0.07930572 -0.1623243 0.049795266 0.044130556 -0.063189976 0.14957473 0.15156461
0.15710911 0.079256445 0.001610738 -0.13802736 -0.21536668 -0.09099834 -0.061661113 -0.06241712
-0.22845341 0.01595281 0.10007816 -0.0013820983 0.04118346 -0.08956386 0.22288223 0.107809454
0.106475525 0.11015331 0.034290094 0.14480713 -0.09106144 -0.011686636 -0.030428559 -0.107430264
0.10416637 -0.00044770585 0.2760222 0.09257139 -0.037579853 -0.042014427 0.09503493 0.11998771
0.048537996 0.01330642 -0.1302659 -0.00494504 -0.005168106 -0.06735192 -0.06595864 0.002482065
-0.29755387 -0.17220831 -0.06626162 0.06744392 0.09017484 -0.019913534 -0.10951478 -0.13714822
-0.19724531 -0.25741464 0.050509185 -0.17290221 0.10569417 0.17999342 -0.046727452 0.08428089
-0.08151295 -0.1341433 -0.24918664 -0.1868835 -0.06763555 0.07307241 0.21766458 -0.13263986
0.10316867 0.017875183 0.16748375 -0.08626067 -0.16697256 0.16908592 -0.1479202 0.14754213
-0.018437551 0.09747078 -0.19212656 0.10534575 -0.10987871 0.08702198 0.056455996 -0.2822709
-0.022212924 -0.051310163 0.1455524 0.050586898 -0.22036076 -0.12346685 -0.16418484 -0.12245877
0.12344707 -0.13759837 0.059713386 -0.023957595 0.18505862 0.09827371 -0.039836165 0.38219562
0.032508016 -0.0983456 -0.11521079 -0.114776194 0.21677181 0.07066712 -0.08908733 0.0900589
-0.15665188 0.013137132 -0.055245336 -0.10634551 0.13113074 0.1509073 -0.107875906 -0.07855526
0.10173364 0.025982263 -0.049528353 0.1795293 -0.03580211 -0.12933189 -0.0747352 -0.16239263
0.034109868 0.18259738 -0.038876504 0.3220913 -0.09521757 -0.051407848 0.043224405 0.021877967
0.11839822 0.08393089 0.21091752 0.07817546 -0.09840629 0.0947183 -0.008000727 0.0011527014
0.08416534 -0.32309347 -0.15740803 0.1620762 0.054278772 0.07077008 0.30836663 0.10571109
-0.1012577 0.07258453 0.049436856 -0.055740584 0.03903214 -0.1791236 -0.19899732 0.058382373
0.120942995 0.04343963 -0.20044371 -0.1803106 -0.09410554 0.059867457 0.015344842 0.08376385
-0.06417522 -0.23717742 0.10431333 0.03097442 0.032367755 0.055165198 0.0038252105 -0.1549064
0.13236 -0.13622725 -0.060750436 -0.09139266 0.027342284 0.10068343 -0.20714658 0.084833525
-0.013268508 0.14385973 -0.043560676 0.20121735 0.26020822 0.033453465 0.111717574 0.01332727
-0.21117179 -0.20547207 0.065237574 0.11615811 -0.043064147 0.100016534 -0.062317748 -0.05367854
-0.05327402 0.10830997 -0.20553942 0.19303784 -0.06195449 -0.0055061937 -0.26600313 -0.018423446
0.05685425 0.0101502035 0.0003950203 0.011689182 -0.05703246 -0.055413246 -0.17629023 -0.012455694
-0.24378146 0.06408619 -0.09138972 0.2994 -0.030892745 -0.14227355 -0.0076610874 0.050276212
-0.2346879 -0.1092238 0.061099377 -0.0579441 0.10528444 0.1543837 0.18618363 0.036315467
-0.12742154 -0.2645999 0.038803462 -0.07338963 -0.017864604 0.06275236 0.0056140334 0.049678892
0.1851748 -0.013787237 0.03710299 -0.017505262 -0.18193455 -0.0712852 0.092121735 -0.11583089

resnet.layers.3.layers.4.weight f4 [8]
00000000: d04a 593f 435d 843f ccb3 523f 8700 853f
00000010: f715 7a3f 000f 843f bb27 763f 0c74 663f
0.8487978 1.0340961 0.823056 1.0390786 0.97689766 1.0317078 0.96154374 0.90020823

resnet.layers.3.layers.4.bias f4 [8]
00000000: 19cb 4bbe 1a04 21be 1812 44be 69e4 acbc
00000010: 6532 bbbd 70ca e4bd 9bf5 a438 0a7d 5fbe
-0.19901694 -0.15724221 -0.19147527 -0.021105008 -0.09140471 -0.111714244 7.865877e-05 -0.21825042

resnet.layers.3.layers.4.running_mean f4 [8]
00000000: 2a9e c7bd f595 45bd ac30 14bd 6a1a 483e
00000010: c929 00be fef9 3abe dafb 90be c7a7 74bc
-0.09746964 -0.048238713 -0.03617923 0.19541326 -0.1251594 -0.18259427 -0.28317147 -0.014932579

resnet.layers.3.layers.4.running_var f4 [8]
00000000: 3940 9d3e 215d 953e 06c9 923e 2e24 c43e
00000010: d93e a03e 21ef 753e 0e6d 953e 8e4e 683e
0.3071306 0.29172614 0.28668994 0.38308853 0.3129795 0.24017002 0.29184765 0.22686216

resnet.layers.4.layers.0.weight f4 [8, 8, 3, 3]
00000000: 9661 8c3c 2ad0 2dbe 4e1a 03bd afea 10be
00000010: 0c13 9dbe 8fa5 dfbd 841c 023e dea9 f4ba
00000020: e571 73bd 0c4e febd b65c 713e f506 25be
00000030: d783 033e 3ac1 2d3e 06af cabc 0d2c 913c
00000040: 212e 433e f468 cebc 1a3c 893d 5e02 973d
00000050: ce3d b3bd 3829 e8bd 8946 3a3c 4beb b5bd
00000060: 34a3 21bd c780 2ebc 93d5 42bd 4282 fbbd
00000070: 1efe 8abd e373 84bd d4ed 92bc e330 543e
00000080: 5505 523e b52f 24bd c357 3d3e 79d4 cdbd
00000090: 1f75 c4be 968c 99bd d09e aebe 5893 f5bd
000000a0: 333e 103e ac85 0fbd ef88 bfbc 8df0 e03d
000000b0: e362 3dbd d4a6 1d3d a008 babd 5019 20bd
000000c0: 7211 febd 1940 853e ba9f 27be b01d 89bd
000000d0: 5b5d 963b 33b0 30bd 7e98 08be 2fd4 8bbd
000000e0: 0bc6 953c 9375 8ebd 17cd 17be 42a3 31be
000000f0: 6a55 3cbd 3d0e 1abe d28b 0a3d 1e28 813e
00000100: 5dd7 25be 4d78 75bd 0f81 32be 1e94 153d
00000110: 4691 77bd 0e26 463e ffd7 17be dd3f 79bc
00000120: 2ed2 d9bc b103 3dbe 9590 5fbe 02d5 d93d
00000130: 0efc b6bb 7466 5f3e adec abbc 7666 153d
00000140: eb7c d3bd 196b 183e aa78 01bc d68f 54be
00000150: d4ed 2c3e 9746 8ebe 85f0 c13c 7bbc 32be
00000160: 5a45 443e 6f84 c33b 6c52 d0bd 4305 843b
00000170: fc2a 113d a6c8 53bb 2bb5 0f3e d943 383d
00000180: 1415 11be 2600 503e bc67 58be 41fc ff3d
00000190: 22c5 af3c 7a2c 263e e2da 6a3d 7d0b f83c
000001a0: 6c4c cd3d a2e0 933d 2d5d 65bd 2451 2abd
000001b0: 6dcb 86be fb29 943e 3375 4abe f530 ad3c
000001c0: d55b 5fbe f724 58bd b8c5 33be 35a6 e13d
000001d0: 62e8 ae3c 0a1e 803e 1da1 223e 220d 39be
000001e0: dd9e d9bd 8a82 7ebe e5d0 363e 7234 5dbc
000001f0: 14ce 183e 6c7e 4f3d 1854 34be 7731 f43d
00000200: 536d b0bd 2179 cebc 0e8c 143e 45a2 4d3d
00000210: d096 bf39 e4a2 293d 63c8 293e 7038 c8be
00000220: d803 fabd c72e b0bd a9d2 3bbe 8740 d13d
00000230: 7163 a9bd 5caf a3bd ccc4 dfbd afd7 08be
00000240: 4cac 6dbe ad62 e9bd 811b b8bb 5865 93bd
00000250: 0903 f9bd 27f4 67be ba3e 03bf 403d b13c
00000260: c4a1 d93c 7217 253e 2575 823d cf14 d43d
00000270: 8fbf 023e 4f40 ad3d 9886 03bc 6f4f 813c
00000280: 0ef4 eabd d28a 993d 67d0 27be 559c 57be
00000290: 8557 863e c1dc 193e 2b45 bfbe 617a 42bd
000002a0: 50c1 413e 70c8 18bd c946 afbc 0471 993d
000002b0: d796 47bd 0f13 2dbd 2dc9 22be c3cb 503e
000002c0: e54b 473e 6aa8 493e 4cb0 803e b745 19be
000002d0: 18bd 223e 5abb f33d b34d d73d 1fc3 b5bd
000002e0: 3f9b 283e 8882 763e 8fdd d23c cee7 3b3d
000002f0: fd2d 393d 0e9d d6bd 7a4f 80bc 8608 003e
00000300: 50f7 113c 1073 2f3c de3c 05be 4155 b7bb
00000310: c85c 48be a92c 1a3e 7958 19be 1d42 333d
00000320: 8f66 c13d 1b81 84bd 5460 f1bd a32b 083c
00000330: 4915 423d 9642 e4bc fe72 423d dd29 0b3e
00000340: 9154 173e 1067 1a3d 79b9 ed3a 16e8 2fbe
00000350: 9296 523e 5aad 133e ba50 2a3e 37dd 90bd
00000360: b34b c1bd a73d 733d 9586 9cbd 988a f4bb
00000370: 0a13 c6bd a3cd b03d 52b5 1ebc 743a 3dbe
00000380: 41e2 8abe fefb 153e 1461 aa3d 05cc 28bd
00000390: 7206 0f3e 3efe 3d3d b29c cb3d a208 483e
000003a0: e56e 36be b534 48be b9bc 87bd 46f5 f1bb
000003b0: 4af8 aebd 73de 233e 494e 2dbd 9873 a0bd
000003c0: 5c0d 55be 71d4 4ebe 5770 3b3e 5eb8 1f3e
000003d0: ca73 913d fd8a 053d faf8 753e f349 b13d
000003e0: 228a f73d 8a6d 16be 37aa 1ebe a206 553e
000003f0: 1c10 97bd d8e0 83bd ef3a 853e 9cc2 893d
0.017136376 -0.1697394 -0.032007508 -0.14152025 -0.30678594 -0.1092025 0.1270619 -0.0018666347
-0.05943479 -0.1241723 0.23570523 -0.16115935 0.12843262 0.16968241 -0.02474166 0.0177212
0.19060566 -0.02519653 0.067009166 0.073734984 -0.08752023 -0.11335987 0.011369356 -0.08882769
-0.039462283 -0.01065082 -0.04756696 -0.12280704 -0.0678675 -0.06467416 -0.01793567 0.20721774
0.20509847 -0.04008456 0.1849051 -0.100502916 -0.38370606 -0.07497518 -0.3410554 -0.11990994
0.14086227 -0.03503959 -0.023380725 0.109833814 -0.046236884 0.038489178 -0.09083676 -0.03908664
-0.12405671 0.26025465 -0.16369525 -0.066951156 0.0045887656 -0.043136787 -0.13339421 -0.0682758
0.01828291 -0.06956019 -0.1482433 -0.17347434 -0.045979895 -0.15044494 0.03382475 0.2522592
-0.16195436 -0.05992918 -0.17432044 0.03651821 -0.060441278 0.19350454 -0.1482849 -0.01521298
-0.02658948 -0.1845844 -0.21832497 0.10636331 -0.0055842465 0.21816427 -0.02098688 0.036474667
-0.103265606 0.14884605 -0.007902304 -0.20757994 0.16887599 -0.2778823 0.023674259 -0.17454712
0.1916708 0.005966715 -0.10171971 0.0040289476 0.035441384 -0.003231564 0.14033954 0.04498658
-0.14168197 0.20312557 -0.21133322 0.124992855 0.021456305 0.16227904 0.05733765 0.030278916
0.10024342 0.0722058 -0.055997062 -0.041581288 -0.26327077 0.2893828 -0.1977127 0.021141509
-0.21812375 -0.052769627 -0.17555892 0.110180296 0.021351043 0.25022918 0.15881772 -0.18071416
-0.10626004 -0.24854484 0.17853124 -0.0135012735 0.14922363 0.050657675 -0.17610204 0.11923497
-0.08614602 -0.025204243 0.14506552 0.05020358 0.00036542723 0.04141511 0.16580348 -0.39105558
-0.122077644 -0.08602672 -0.18342079 0.10217386 -0.0827092 -0.079924315 -0.10926208 -0.13363527
-0.23210257 -0.11395774 -0.005618513 -0.07197064 -0.12158782 -0.2265173 -0.5126759 0.021635652
0.026566394 0.16122225 0.0637 0.103555314 0.12768386 0.084595315 -0.008027695 0.015784947
-0.11472331 0.07497181 -0.16388093 -0.2105573 0.26238647 0.15025617 -0.37357458 -0.04747999
0.18921399 -0.037300527 -0.021396058 0.07492259 -0.048727836 -0.042254504 -0.15897055 0.20390229
0.19462545 0.19693151 0.25134504 -0.14968 0.15892446 0.11900969 0.10512867 -0.08875107
0.16465472 0.24073231 0.025740413 0.045875363 0.045209873 -0.104791746 -0.015662897 0.12503251
0.008909062 0.010708585 -0.130115 -0.00559488 -0.19566643 0.15056099 -0.14975156 0.043764222
0.094433896 -0.064699374 -0.11785951 0.008311185 0.04738358 -0.027863782 0.047472946 0.13590188
0.14778353 0.037695944 0.001813694 -0.17178378 0.2056525 0.14421597 0.16632357 -0.070734434
-0.094382666 0.059384968 -0.07642857 -0.0074628107 -0.096716 0.08632972 -0.009686785 -0.1847933
-0.27125743 0.14646909 0.083192974 -0.041210193 0.13967302 0.046385042 0.09941997 0.19534543
-0.1781574 -0.19551356 -0.06627793 -0.007383975 -0.08543451 0.16002826 -0.042310987 -0.07834548
-0.20805877 -0.20198227 0.18304573 0.15597674 0.07102163 0.032603253 0.24020758 0.08656683
0.120868936 -0.14690223 -0.1549462 0.20803311 -0.073761195 -0.0643937 0.26021525 0.06726572

resnet.layers.4.layers.1.weight f4 [8]
00000000: bcca 8f3f d5b3 693f aa2a 893f 4cd3 7d3f
00000010: e733 723f 64c7 823f 0785 773f 11d9 803f
1.1233745 0.91290027 1.0716145 0.9915054 0.94610447 1.0217099 0.9668736 1.0066243

resnet.layers.4.layers.1.bias f4 [8]
00000000: 9b55 a8bd 84a8 50be 5b12 f3bd 77f3 2d3d
00000010: 6fc9 07be 8d2d 16be 6433 83bd e217 21be
-0.08219453 -0.20376784 -0.118687354 0.042468514 -0.13260435 -0.14665814 -0.06406286 -0.15731767

resnet.layers.4.layers.1.running_mean f4 [8]
00000000: 6835 0dbf 1393 0ebe 437a 3c3e 6ad6 253f
00000010: e512 b9be e1a5 9ebe 2f5d e4be 8861 0abe
-0.55159616 -0.13923292 0.18406014 0.64780295 -0.36147228 -0.3098593 -0.44602343 -0.13513768

resnet.layers.4.layers.1.running_var f4 [8]
00000000: 8f1c 1b3f 5762 b93e f1e5 2a3f 2a89 8b3f
00000010: d1f1 ab3e 49ca 863e 6255 033f 4891 b83e
0.6059045 0.3620784 0.6675711 1.0901234 0.3358293 0.26326206 0.5130216 0.3604834

resnet.layers.4.layers.3.weight f4 [8, 8, 3, 3]
00000000: 8bcc db3d 9726 5ebe 1580 0ebd b2c1 343e
00000010: a1a2 ed3d 7c72 273c 18ec e93d 7541 59be
00000020: 0250 5bbe eae0 623d a3b5 ee3d e4d3 cbbd
00000030: 058d 13be a179 53bd c4ca 43be e55f dd3d
00000040: ba9a cd3d 3b89 c23d 9b6d 3e3e 4842 743c
00000050: a18b 4d3e 598f 823e 6258 53bd 84da 103e
00000060: f5f6 213e 3641 b53d 2efd 1a3d 63b3 7f3e
00000070: e846 c93d 932b 93bc 5a65 09bd d121 d63c
00000080: 437a b0bb b9e0 f83d 2124 8dbd 5533 903d
00000090: 6ac8 5dbc 0e39 913d 7acf 323d 9311 6ebd
000000a0: 6898 acbd 4044 ca3d db58 0fbd 3d41 893d
000000b0: 8d95 da3c 6c56 4fbe 0a92 46be b314 c7bc
000000c0: 3fc6 02be fdff e7bd 44e7 6c3c 29b1 7abd
000000d0: f812 12bb 51ba e7bc 0239 f6bd 3a5a 0fbe
000000e0: 4d38 6dbc d6ad 453d 25ab c1bd 15bb 20bd
000000f0: d4b5 6b3d 2e4e b63d 9d47 babd c70a abbd
00000100: 0fd9 59bd 8cfb 6d3d 64e7 113e d8b4 1f3e
00000110: 6193 0dbe c7c5 f1b9 21c4 2abe 228e 8c3d
00000120: eb90 b53d 6191 3fbe 3c97 00bd 364b 103e
00000130: 2545 c03d ea11 b43d 4f13 443b 9913 3b3d
00000140: ffd6 dfb9 da31 833d 7692 7f3d f557 21bd
00000150: b790 0f3c ecd3 23bd 0489 9f3d 8707 153e
00000160: ca61 06bd d91e c03d f161 f93b 761d 5a3e
00000170: 2b7f 343e 6de8 1f3d 8f10 1d3d 7150 e13c
00000180: ccfd c2bd 8f35 8bbd c6b2 25bd cb76 94bd
00000190: 4206 d33c e041 383e df79 0abe e39e 95bc
000001a0: eac5 d93d bd34 0cbe 1d40 36bc 02f2 8bbd
000001b0: 6915 97bc 2426 403c 6bd4 8a3d f84d 313e
000001c0: 44ad 36bc d40e 313e a0cf e23a dd78 58bd
000001d0: dc08 823e 87b5 06be 27c4 14be 38d2 b5bd
000001e0: 1016 073e b183 6cbe ddc6 0bbc 3573 11bd
000001f0: 6e31 45bc d155 af3c 7ae0 b23c 1ca7 72bb
00000200: 299e a0bd 0241 2c3e 3f99 023e eb5b 94bd
00000210: 59e3 0c3e 5ec7 6dbd d899 323e 6e0b bc3d
00000220: 9f33 313d 3028 9cbd 44eb e8bd 0fce 08be
00000230: 0dd6 ea3d d88a 41be 7f34 2cbd 1d06 243e
00000240: c41a 963e 24e9 943d e3aa b23e 0292 503c
00000250: b86a 0a3c 63ab 37bd d303 723d 3d9c 9fbc
00000260: 41c9 d2bc 11b6 c13d f69c 20bd 2dcb 1cbe
00000270: 0e3e ebbd d23a 9abd 1d7b 023e b773 20be
00000280: 9881 b03d 3cdb b9bb 1807 09be dbd1 51bd
00000290: 1593 133d 4cf2 babd dcaa 55bd 7988 28bc
000002a0: 35a8 f3bc d81c 373e 82fc 263c 22e7 8abe
000002b0: 8e80 c7bd f423 583d 7024 0bbe f160 aabd
000002c0: dee6 58bc b6a5 423e 4feb 4abc 321d 30be
000002d0: c58a 1ebd fdb1 9cb9 75ff f8bd f615 f23b
000002e0: 8db2 8abb 8ae6 773d 390a 083e b833 533d
000002f0: 9470 f5bd e6c2 41bc 510a 0e3d 2de5 02bd
00000300: 605d 15be fd94 6ebd faa0 08bd 3096 2cbe
00000310: 1b95 303e 1407 f83d 947b 1bbe c17a 84bb
00000320: 37a3 4d3e b66e 70bd 8215 bc3c c1ea c9bc
00000330: fac0 763d 8883 40bc c579 3b3e 7bb8 1d3e
00000340: 37b5 9c3d 9ee2 5cbe 9f38 42be 4b53 e5bc
00000350: 16be b4bc 8a65 463e 812b b63d 97af 7dbe
00000360: 42d6 68bd a763 a7bd 8c0e 5d3d 1ff8 42be
00000370: 34b6 48be 863b 85be 3bd9 33bd c7b8 57ba
00000380: c99b f6bb f159 b8bd 1f62 473d 9288 2abd
00000390: 3ba2 71bd f851 b63d e501 d2bc 8f31 07be
000003a0: f0ca 03be b2ad 5fbd 9cbc ccbd 1822 93be
000003b0: b106 e83d 5da5 c63d 2fee 3e3b 4e72 00bd
000003c0: 32b2 c2bc 1c17 42bd 93c7 963e 18c8 8bbd
000003d0: ce51 9fbc 64aa e3bd d3cb ddbd 4606 d9bd
000003e0: ee17 1e3e 614f 9c3d bafd 46bc e469 eb3d
000003f0: d5fe f2bb db8a eb3d 01cd 14be 082b b6bb
0.10732373 -0.21694408 -0.034790117 0.17652014 0.116032846 0.010220166 0.114219844 -0.21216376
-0.2141724 0.055390276 0.11655738 -0.09952524 -0.14409263 -0.051629666 -0.19120318 0.10809306
0.100392774 0.09498831 0.18596499 0.014908381 0.20072795 0.2549999 -0.05159796 0.14145857
0.15816863 0.088503286 0.037839107 0.24970774 0.098279774 -0.017965114 -0.033543922 0.026139172
-0.0053856685 0.121522374 -0.06891657 0.07041041 -0.013536552 0.070909604 0.043654896 -0.05812223
-0.08427507 0.09876299 -0.03499685 0.06701896 0.02668264 -0.20247811 -0.19391647 -0.024301862
-0.12770937 -0.11328123 0.014459435 -0.06120411 -0.0022289138 -0.028287085 -0.12022592 -0.13999262
-0.014478755 0.048261486 -0.09456471 -0.039240915 0.05754645 0.0890163 -0.090956904 -0.08351665
-0.05318552 0.058101222 0.14248425 0.1559633 -0.13825752 -0.00046114458 -0.1667638 0.06863047
0.088655315 -0.18707801 -0.03139423 0.1409119 0.09388188 0.08792479 0.0029918735 0.045672987
-0.0004269406 0.06405993 0.062395535 -0.039390523 0.00876253 -0.039997026 0.077898055 0.14553653
-0.032808103 0.09380884 0.0076105525 0.21300301 0.17626636 0.039040018 0.03834587 0.027504178
-0.09521064 -0.06797325 -0.040453695 -0.072492205 0.02575982 0.1799388 -0.13523053 -0.01826424
0.10633452 -0.13691993 -0.011123684 -0.06833269 -0.018442826 0.011727843 0.06778797 0.17314899
-0.011149708 0.17290813 0.0017304309 -0.05284964 0.25397384 -0.13155185 -0.14527951 -0.08877987
0.1319201 -0.23097111 -0.008531299 -0.03551026 -0.012035711 0.021403225 0.021835554 -0.0037025874
-0.07842667 0.16821674 0.12753771 -0.072440945 0.13758601 -0.05805146 0.17441499 0.091818675
0.04326212 -0.07624853 -0.11372998 -0.13359855 0.11466608 -0.18900621 -0.04204225 0.16017957
0.29317296 0.072710305 0.34896 0.0127301235 0.008448295 -0.04484118 0.05908568 -0.01948368
-0.025730731 0.094585545 -0.03921219 -0.1531188 -0.11486445 -0.0753075 0.12742276 -0.15669142
0.08618468 -0.0056718867 -0.13381612 -0.051225524 0.03602894 -0.09128246 -0.052164897 -0.010286444
-0.029743293 0.17882097 0.0101920385 -0.27129465 -0.09741317 0.052768663 -0.13588119 -0.08319271
-0.013238637 0.19008526 -0.0123852035 -0.17198637 -0.03870656 -0.0002988725 -0.121580996 0.007387872
-0.0042327107 0.060522594 0.1328515 0.051562995 -0.11984363 -0.011826253 0.034677807 -0.03195684
-0.14586401 -0.058247555 -0.033356644 -0.16854167 0.17244379 0.12110725 -0.1518386 -0.0040429537
0.20081793 -0.058699332 0.022959474 -0.024648072 0.06024263 -0.0117501095 0.1830817 0.15402405
0.076517515 -0.21570823 -0.18966912 -0.027993819 -0.022063296 0.19374672 0.088950165 -0.24774013
-0.056844957 -0.08173304 0.05396895 -0.19039963 -0.19600755 -0.26021975 -0.04390834 -0.0008229133
-0.0075258953 -0.0900153 0.04867756 -0.04163415 -0.058992606 0.08902353 -0.025635669 -0.13202499
-0.12870383 -0.054609008 -0.09996912 -0.2873695 0.11329401 0.09699509 0.0029133668 -0.03135901
-0.02376661 -0.04738532 0.29449138 -0.06825274 -0.019448187 -0.11116484 -0.10829892 -0.105969
0.15438816 0.07632328 -0.012145454 0.114948064 -0.0074156323 0.11501094 -0.14531328 -0.005559329

resnet.layers.4.layers.4.weight f4 [8]
00000000: 569e 6c3f cc81 703f 8c9a 483f 787e 403f
00000010: 83b9 6b3f 7497 503f 02ff 563f ed2c 5d3f
0.924291 0.93948054 0.7836082 0.75192976 0.92079943 0.814811 0.8398286 0.86396676

resnet.layers.4.layers.4.bias f4 [8]
00000000: 1df3 52be 0fa9 1bbe f563 dbbd 7c97 92be
00000010: 247e 2abe 0788 89be b5a2 46be e107 06be
-0.20600553 -0.1520121 -0.10712425 -0.28631198 -0.16649681 -0.26861593 -0.19398005 -0.13088943

resnet.layers.4.layers.4.running_mean f4 [8]
00000000: 3fdc 383e 5ca3 483e 9a99 3abe 5994 93be
00000010: 2e7f 073f 942c 5f3c 98b7 933e b467 3ebf
0.18052767 0.19593567 -0.18222657 -0.28824118 0.52928436 0.013621468 0.28851008 -0.7437699

resnet.layers.4.layers.4.running_var f4 [8]
00000000: 3c94 cc3e 9e55 d63e 2404 913e 91a4 963e
00000010: 28d4 d53e 47ee 943e 44b5 953e 86ec ce3e
0.39956844 0.41862196 0.28323472 0.2942243 0.41763425 0.2908804 0.29239857 0.40414828

policy_layers.layers.0.weight f4 [16, 72]
00000000: 824f 78be dafe 8d3d ba80 b03d bc01 82bd
00000010: f8e2 4fbe 859e a1be abbd ecbe af4d d9be
00000020: d5ad 0ebe 8b6b c53e 88ff 99bd b683 e8bd
00000030: 88a2 0f3e 66a6 c3be 932c 583e 6cbd f1bb
00000040: ccbd 26be 3df4 91be 76c8 a93d abd6 443e
00000050: ad55 7c3d 61d9 01be 0691 033e 0bfb 873e
00000060: 2587 ed3e 3800 97be 4b2d bebd a21f 31be
00000070: d7b3 c8be 61d0 ea3d 2d0f 75bd c7f5 403e
00000080: 1c42 efbd f85b 003e e918 9a3d ebd5 12bf
00000090: 52b4 76be 1b3d 1c3e d437 0a3e 0d7d 49be
000000a0: 69a7 82be 8ba4 48be 4e43 a7bd 6868 d3bd
000000b0: d471 b2bd dd38 13bd b9d4 4dbe b578 2ebf
000000c0: 5e30 8cbc 73a3 91be db81 f5bd f9a8 0dbe
000000d0: 86ca bdbe 4203 81be b013 9c3e 4913 ac3e
000000e0: e881 893e d163 ddbe 0f45 463e 45db 1c3e
000000f0: a391 5f3d 8134 02bd da2e 663e 9a17 a2bd
00000100: 14de 5abd 946c 423d ab06 24be e07d 273e
00000110: 999d 4abe 3356 963e a168 823d 3c0f 0f3e
00000120: 5250 3c3d 9606 653e 082a 4fbe c359 b93e
00000130: 78ed 18bf 4fd4 663e f547 e43c 9102 81be
00000140: 8dfb f7bc 094b 273f 6537 85be a73c cd3e
00000150: 95f1 683e bf40 6cbe e4f8 a1be 1b46 8dbe
00000160: 4b29 87bd 49e1 76be 3a8d 393e d9f5 843d
00000170: f96c 9c3e d82f 023f 6956 933e 0154 c13c
00000180: 4669 eb3d 5618 fe3d 068c b5bd 3662 1bbd
00000190: b5c2 b6bd c9aa 6c3e 9deb 51be b78a 9bbe
000001a0: a2f1 0e3f e770 c5be c062 7a3e cf2c 41bf
000001b0: 18fb d5bd 8853 273e 5f8e 773d 1e80 a03e
000001c0: 2267 cabe 7d0e 363e b8e3 45be 3ab8 e5ba
000001d0: 99fd a13d 5f8e d83e 7f5f 25be 5043 76bd
000001e0: e14d 8dbe 3652 c03d f6f9 c4be 6d63 1dbd
000001f0: 3024 84bd 4358 9a3e ea5f b93e f4ea 2fbe
00000200: 9f0a c03e 9755 7a3e 7157 243e 81f3 183e
00000210: e374 48be 71de e7bd c127 fa3e 52e8 453e
00000220: b723 99bd 3c88 a63d 08f4 133e 0a53 fd3e
00000230: 8d13 f3bb 6dfe e9bc 9f52 033e 6c07 553d
00000240: 116b 9a3e b8e9 1e3e be71 973e 6376 fc3e
00000250: a241 18be c3d2 65be 240e e43c 59bd 4c3e
00000260: 848a b4be 2c12 fdbe 0005 793c d6dc dfbb
00000270: a4b3 15be 1083 66be 2c46 e8be f9a1 d6bd
00000280: b4d0 01bd f368 0abe f513 46bd 02fc cbbd
00000290: 1816 3e3e d248 453e c4f6 d63b ec6f 08bc
000002a0: d3b3 81be 37fc 993e 8e38 43bf 3c68 ba3d
000002b0: 2fdb 5e3e 42ef 04be 3d58 fc3d 4ba5 05be
000002c0: c018 80bd 473c 19be 2341 eb3e 4d37 eb3d
000002d0: f634 4dbe 48ef acbe a9bb af3e 110d 64be
000002e0: 3133 51be 9b40 943c 7e3a ca3e 9625 48bf
000002f0: a7dd 7ebe bf7f 553e b0f2 b73d c060 9c3e
00000300: 666a 7dbd 870e 243e 479f 26be bf34 fd3d
00000310: 6854 a73d 61a2 8bbd 9bbb 5bbf e9ab ce3d
00000320: da5d cdbd a38e c43e 2d0f 223e 4d7f 123e
00000330: f336 4dbc 4f49 f3be c848 073e c14b bebe
00000340: e05f ff3c 3f02 81bd 482b b33e 8018 90be
00000350: bd7c 4bbd cfce ce3c 24e0 0e3d 1225 533e
00000360: 4d5b e33e c12e 073f 934e 97be 72e4 a8bd
00000370: 1ba7 efbe 3803 8cbe fc86 5dbe cd23 403e
00000380: cf4f 313e 040c cbbe 37b1 9b3e e416 fc3e
00000390: 39a9 f1be 8087 813e d4ab b8be fc6c 013e
000003a0: fe74 e8bc 1c13 04be fdeb 25be c3a2 44be
000003b0: 2372 26bf 2019 853d 9af2 913d 940e e13d
000003c0: 4d3f a6be e780 0d3f 0992 2fbf b1d8 793e
000003d0: 37d1 e03e ac2c 123f 8f50 153d 6472 f9be
000003e0: f35b dc3d f9f2 dcbd bb71 03bf b095 c1bc
000003f0: 9d3a ce3e c62d d8be 61b9 1bbf 875e 0d3f
-0.2424908 0.06933375 0.08618303 -0.06347987 -0.20301425 -0.31566253 -0.46238455 -0.4244208
-0.13933499 0.3855861 -0.07519442 -0.11353247 0.14026845 -0.3821289 0.21110754 -0.007377317
-0.1628334 -0.28506652 0.08290188 0.19222514 0.061605144 -0.1268058 0.12848291 0.26558718
0.4639217 -0.29492354 -0.09285983 -0.17297223 -0.39199707 0.11465526 -0.059828926 0.18843757
-0.11682531 0.12535083 0.075242825 -0.5735766 -0.24092224 0.15257685 0.13497859 -0.1967661
-0.2551835 -0.19594018 -0.08167134 -0.10322648 -0.08713117 -0.0359429 -0.20100679 -0.68152934
-0.017112907 -0.28445014 -0.119876586 -0.13833989 -0.37068576 -0.25197798 0.3048377 0.33608463
0.26856923 -0.43240216 0.19362281 0.1531802 0.05458225 -0.031788353 0.2247881 -0.07914658
-0.053434446 0.04746683 -0.16018169 0.16356611 -0.19786681 0.2936264 0.06367613 0.13970655
0.045975037 0.22365794 -0.20230877 0.36201295 -0.5973735 0.22541927 0.027866343 -0.2519727
-0.030271316 0.6534887 -0.26018825 0.40085337 0.22748406 -0.23071574 -0.316352 -0.2759255
-0.06599673 -0.24109377 0.1812028 0.06492204 0.3055189 0.50854254 0.28776863 0.023599626
0.11494689 0.124069855 -0.08864598 -0.037935458 -0.08923856 0.23112024 -0.20500036 -0.3037927
0.5583745 -0.385627 0.24451733 -0.75459 -0.10448283 0.16340458 0.06043851 0.31347746
-0.3953181 0.17778964 -0.19325149 -0.0017526217 0.07909698 0.4229612 -0.1614971 -0.060122788
-0.2759848 0.093906805 -0.38471955 -0.038424898 -0.06452215 0.30145463 0.3620599 -0.17179471
0.37508103 0.24446712 0.16048981 0.1493664 -0.19575839 -0.11321724 0.48858455 0.19326904
-0.07477515 0.081314534 0.1444856 0.49477416 -0.007418102 -0.028563702 0.12824486 0.05200903
0.3015981 0.15518844 0.29578966 0.49309072 -0.14868787 -0.2244368 0.027838774 0.19994105
-0.3526193 -0.49427927 0.015198946 -0.0068317456 -0.14619309 -0.22510934 -0.45366037 -0.104801126
-0.031693175 -0.13516597 -0.048358876 -0.09960176 0.18563116 0.1926606 0.0065601785 -0.0083274655
-0.25332507 0.30075237 -0.7625817 0.091019124 0.217633 -0.12981895 0.123215176 -0.13051336
-0.06254721 -0.149644 0.45948133 0.11485157 -0.20039734 -0.33776307 0.3432286 -0.2227061
-0.20429684 0.018097213 0.3949775 -0.7818235 -0.24889241 0.20849513 0.08981836 0.30542564
-0.061869048 0.16021167 -0.16271697 0.12363576 0.08170396 -0.06818081 -0.8583314 0.10091383
-0.100276664 0.38390073 0.15826102 0.14306374 -0.012525308 -0.47516868 0.13211358 -0.3716717
0.031173646 -0.062992565 0.34993958 -0.28143692 -0.049679507 0.025245098 0.034881726 0.2061961
0.44405594 0.52805716 -0.29552135 -0.082466975 -0.4680718 -0.27346206 -0.21633524 0.18763657
0.17315601 -0.39657605 0.30408642 0.49236214 -0.4719942 0.2529869 -0.36068594 0.1263923
-0.028376099 -0.12897915 -0.16203304 -0.19202714 -0.6501791 0.06498933 0.07126351 0.10989109
-0.3247017 0.55274814 -0.68582207 0.24399067 0.43909618 0.57099414 0.03645378 -0.48720086
0.107597254 -0.10788531 -0.51345414 -0.023630947 0.40279093 -0.42222422 -0.6082974 0.5522236

policy_layers.layers.0.bias f4 [16]
00000000: bf55 ed3b bbf3 4d3e 65dc 843e b10d 76bd
00000010: 73e8 b93d 8c0b 733c d7ce bfbd 9168 063e
00000020: 4300 ed3c dceb 953c a53b 633d aeea 2dbc
00000030: f61d 1a3e a38c 88bd 1c62 353d a444 d0bd
0.0072428877 0.20112507 0.25949398 -0.06007165 0.09077539 0.014834296 -0.093656234 0.13125826
0.028930789 0.018300943 0.055476803 -0.010615034 0.15050492 -0.06667449 0.044283018 -0.10169342

policy_layers.layers.2.weight f4 [16, 16]
00000000: 8c28 fe3b f393 92bd 1333 113f cb0c a73e
00000010: 8f06 adbd f4f5 573f 7f8b 313e 8e79 d13e
00000020: 0023 1a3f d524 49bf bb53 ea3d e168 ad3e
00000030: 1e40 69bd 7d3a 463f d587 f93e 59d1 fb3e
00000040: ef0c 15be 7793 b9be 683f 2d3f b070 0fbf
00000050: c77f 4ebf e811 e33e 5324 a53e bb22 463e
00000060: 88e5 203e 72ae 9c3e 59fa 0dbe fb3a 6d3f
00000070: 5eea fd3e de37 ae3e 5bb5 493f 4053 ddbe
00000080: 7902 afbd 9141 4cbf 1f1f eabd 4d0d 4bbf
00000090: 278c f4be fb1b 08bf 8c31 e2be c43e 193f
000000a0: fc72 433f 0489 fe3e 1f91 49be 6f7d 453e
000000b0: a881 82be 29c3 5cbe 4362 a4be e042 e53e
000000c0: 7cda 503f f976 a83e 65fb 583d ed68 59bf
000000d0: aa5c ac3d 79c1 5dbf f6d4 5ebf 1e22 d9bd
000000e0: e291 253e d45f c93c 437a bc3e 049f debd
000000f0: 4569 f5bd 3799 7dbe 55c6 16bf ecd8 9e3d
00000100: 16f9 3f3e 29b1 4cbe cb06 4f3e ec6c 713c
00000110: 914d 8e3e 028a bbbe e9f3 93be beb2 663e
00000120: f827 143f cb9e 5abf 0c98 58bc 970e b4be
00000130: 9ad5 203f 227b 91be 9b76 003f cbf1 5e3f
00000140: 19bf 89bd c7d1 8ebe 9059 3b3f 9314 a13e
00000150: af82 873e e889 e03e 077f 983e 5322 1bbe
00000160: 3605 edbd c317 533f c2b2 873e 32ba 95be
00000170: 3ed5 30bf 881e 093f f8fe ebbd 777e 173e
00000180: d4c7 953e 6fd3 783e 1571 78be 029c 66be
00000190: 6957 fc3e 101a 123f c2ed 16bf 1f14 adbd
000001a0: 47a4 963e e645 7e3f ede0 91bc 1c4d 3fbf
000001b0: a14d 09be 9c1b aa3e d64f ae3e 1031 ba3c
000001c0: d86d 91be 2cf5 72be 0e19 efbe fca1 023f
000001d0: 9554 6fbe 0cad 9f3d 970b edbe df4a 9e3e
000001e0: d173 24bf ea06 33be 98b7 eebc 4c3f 3f3e
000001f0: acdf 073f 24e7 cf3d 9b31 dc3d 5a9f 353f
00000200: dff5 a53e 4f83 9cbf e754 c4bb 0f8c ef3d
00000210: d1b2 253f 1362 d8be 916d 1d3f 1aa1 0c3e
00000220: 7686 c93e 44e8 cc3d e475 333e a9a3 1f3e
00000230: e9ef d93e 1dfa 983d 2607 163d ab5e 8ebe
00000240: 3208 ae3e 98ad bf3e 2579 d93d 35b6 39be
00000250: 395a a43e 19fe 48bf df62 6d3f e730 003f
00000260: 7707 a83e 1739 353e 90fc 233f 4ed5 103f
00000270: 3a14 0abd 5264 41be 72e7 b53e d560 26be
00000280: 90ea 8c3e 512a aebe 24b1 babd 53c4 1c3f
00000290: 7078 103f c8d1 893e f71b 68bd 04e2 ac3e
000002a0: 4afb 8a3d 4e2d 403f 3fef c33b dd5a 13bf
000002b0: 48ff 29bd 6644 083d 6bc5 5bbe c03b 58be
000002c0: eccd 21bf 3bf7 70be ffaf 063b 6db8 ed3d
000002d0: 173f 1cbf f868 783f 4325 713e be11 b7be
000002e0: 7f93 bc3e fc1a ed3e 450b 5c3f 522e d93e
000002f0: 9556 da3e 3fb5 2dbe dff0 cabe 80a4 953d
00000300: 9a83 833e ca49 7e3c a9bd cb3e 0eaa b93c
00000310: e900 b5bd 2304 d83e 7087 b83e accc b6be
00000320: 8495 053f 157f 7ebe 67d5 7dbf 83d7 083f
00000330: 2f70 d73e 57c2 4e3f 44e1 37bf 6b58 05bf
00000340: abf4 c13e be89 94be f3a0 7f3e 41c1 c1be
00000350: 7404 343f 72e6 e8be 70f6 e73e c417 003f
00000360: 3e92 64bc 966b 9bbe a92b edbe e029 663e
00000370: 50b5 04bf 3a0f 243e e5c1 aabe 65b2 b9be
00000380: 0e2f d1be 97af c5be d69c b23e 1745 203f
00000390: 0710 ff3e 340c fabc 5655 1e3f ce04 41bf
000003a0: d60f 59bf 9991 38be a5aa 793e bd7c c7be
000003b0: 7aaa 5f3e 0963 f33d 3695 733e 20ac 273d
000003c0: d1f2 903e 2162 9ebe 9900 83be f852 e7bd
000003d0: 7c04 2a3e c115 bd3e 87f0 183f 8d6a 3bbf
000003e0: d5df f33e b592 2cbe 8d9b 83be 9b0d 48bd
000003f0: 4e62 01bf 5fe1 c7be fd6c 713e 79e4 a3bb
0.0077562984 -0.07157125 0.5671856 0.32626948 -0.084485166 0.8435967 0.1733837 0.4091305
0.60209656 -0.78571826 0.114417516 0.3386908 -0.056945913 0.77432996 0.48736444 0.49183157
-0.14555715 -0.3624532 0.67674875 -0.5603132 -0.8066372 0.443496 0.32254276 0.19349186
0.15712559 0.3060184 -0.13865031 0.9266812 0.4959287 0.34026998 0.7879235 -0.43227577
-0.085453935 -0.79787546 -0.11431717 -0.7931717 -0.47763178 -0.53167695 -0.44178426 0.598614
0.7634733 0.4971391 -0.19684266 0.1928613 -0.25489545 -0.21558823 -0.32106218 0.44777584
0.8158338 0.3290327 0.052974124 -0.8492573 0.08416112 -0.8662334 -0.870437 -0.106022105
0.16168931 0.024581827 0.36812028 -0.108701736 -0.11982969 -0.24765478 -0.5889638 0.07756218
0.18747362 -0.19989456 0.20217435 0.014735442 0.27793553 -0.3662873 -0.28897026 0.22529122
0.5787349 -0.8539855 -0.013219845 -0.3516738 0.6282593 -0.28414255 0.5018098 0.87087697
-0.06725902 -0.27894422 0.73183537 0.3146101 0.2646689 0.43855214 0.29784414 -0.15149812
-0.115732595 0.8245813 0.2650357 -0.29243618 -0.6907538 0.5356221 -0.11523241 0.14794336
0.2925402 0.24299406 -0.24261887 -0.2252045 0.4928544 0.5707102 -0.5895654 -0.084511034
0.2942221 0.99325407 -0.017807448 -0.74727035 -0.1340852 0.3322419 0.34045285 0.022728473
-0.28404117 -0.23726338 -0.46698803 0.5102842 -0.23372109 0.07796678 -0.46297905 0.30916497
-0.6423922 -0.17483106 -0.029140279 0.1867649 0.5307567 0.101515085 0.10751649 0.70946276
0.32414147 -1.2227572 -0.0059915665 0.11696636 0.6472598 -0.42262325 0.6149531 0.1373333
0.39360398 0.10005239 0.1752544 0.15589775 0.4256585 0.0746958 0.03662791 -0.278066
0.33990628 0.3743713 0.106188096 -0.18135913 0.32100084 -0.7851272 0.9272899 0.5007462
0.32818195 0.1769756 0.64057255 0.5657548 -0.033710696 -0.18885925 0.3552814 -0.16247876
0.27522707 -0.3401666 -0.09115818 0.61237067 0.56433773 0.26917863 -0.056667294 0.33766186
0.06786211 0.7506913 0.005979448 -0.5756052 -0.04150322 0.033268355 -0.21462028 -0.21116543
-0.63204837 -0.23531811 0.002055168 0.11607442 -0.6103377 0.9703517 0.2354937 -0.35755724
0.3683128 0.4630965 0.85954696 0.42418152 0.42644182 -0.16963671 -0.39636895 0.073067665
0.25686342 0.015520522 0.39793137 0.022664096 -0.08838064 0.42190656 0.3604083 -0.35703027
0.5218127 -0.24853165 -0.9915375 0.53453845 0.42077777 0.8076529 -0.71828103 -0.5208804
0.3788198 -0.2901134 0.24963741 -0.37842754 0.70319295 -0.45488316 0.45305204 0.50036263
-0.0139508825 -0.3035552 -0.46322373 0.22476912 -0.5183916 0.16021433 -0.33351055 -0.36268917
-0.40856212 -0.38610527 0.3488528 0.6260542 0.49816915 -0.030523397 0.6184896 -0.75397956
-0.8478979 -0.18024291 0.24381502 -0.38962355 0.21842375 0.11884124 0.23787388 0.040935636
0.28310254 -0.3093424 -0.25586393 -0.11295122 0.16603273 0.3693066 0.59742016 -0.7320946
0.47631708 -0.1685284 -0.25704613 -0.0488411 -0.50540626 -0.39039132 0.23576732 -0.0050016013

policy_layers.layers.2.bias f4 [16]
00000000: 075a 7b3d f75d 01be 4c3a 5fbe 2b80 f9be
00000010: 08ec 3e3d 2823 1abe 531b eabb 0ccb afbe
00000020: a6e6 92bd ffa5 3abe b36a 98bd 119d 8c3e
00000030: 04e6 c8bd dc58 8fbe b523 92be 853d 9dbe
0.061365154 -0.12633501 -0.21799582 -0.48730597 0.046611816 -0.15052474 -0.0071443706 -0.343346
-0.07172899 -0.18227385 -0.07442226 0.27463582 -0.09809497 -0.27997482 -0.28542867 -0.30710998
