RL/TicTacToe/pretrained/alphazero_model_discount.pth (torch_old, 30554 bytes, 36 tensors)

resnet.layers.0.weight f4 [8, 3, 3, 3]
000000 89 10 8e be 7e b1 a5 be b2 12 82 3b 3f 1d d9 bd
       -0.2774699 -0.32361978 0.003969514 -0.106012814
000010 c9 98 c6 3c 91 d9 79 3e 3b f8 18 be 7d 35 91 3e
       0.024242776 0.24399401 -0.14938442 0.2836112
000020 1c 9f 7a 3e b9 c5 9d 3d 4b 7a 90 bd ba 86 27 3c
       0.24474758 0.07703728 -0.070545755 0.010224992
000030 9c 10 33 3d 89 c4 79 3e 0f 17 9b be e9 c1 c5 3e
       0.04371701 0.24391378 -0.3029103 0.38624504
000040 6d 5d f8 3d af 9e 52 3e 0b f3 54 be 55 8e c9 3d
       0.121271946 0.20568345 -0.20795839 0.09841601
000050 b1 7c 1b 3e 62 3c c8 3d 39 3c 10 3c de 21 0e 3d
       0.15184285 0.09777142 0.008803421 0.034700267
000060 59 37 07 be 4e e6 71 bd a8 99 04 be a7 27 d6 bd
       -0.13204707 -0.059057526 -0.1294924 -0.10456782
000070 e3 2a 6f 3d e4 b4 2f be 2f d3 91 3e a9 04 83 3d
       0.05839051 -0.17158848 0.28481433 0.06397373
000080 83 0f 90 3e 4f 4b 36 3d d8 5f 87 3d 71 59 88 3e
       0.28136835 0.044505414 0.066100776 0.26630738
000090 f5 84 26 3e ab d6 d7 bd 6b a7 c7 bb 4d 05 9a 3d
       0.16261657 -0.105389915 -0.006092956 0.07520542
0000a0 55 05 ac be 27 a2 ec bd 09 38 77 be f5 e0 7b 3e
       -0.33597818 -0.115543656 -0.2414247 0.24597533
0000b0 ef 6f a3 be 22 ad fc 3d 51 56 36 bd ad 4a 3b 3e
       -0.31921336 0.1233771 -0.04451591 0.18290205
0000c0 b7 ec fd 3d ff 96 04 3e e1 38 91 3c 38 26 6f bd
       0.123986654 0.12948225 0.017727317 -0.058386058
0000d0 70 11 27 be 7d b4 77 3c 29 51 30 3e cc f0 bc 3e
       -0.16315246 0.015118715 0.1721846 0.36902463
0000e0 38 46 a2 bd e0 c2 40 be b6 eb 37 bd bb 8a ea bd
       -0.079235494 -0.18824339 -0.044902526 -0.11452242
0000f0 ba 80 33 bd 60 b3 72 3c 02 fd 8c bd 45 12 37 bd
       -0.043823935 0.014813274 -0.06884195 -0.044695158
000100 8b 2a ab be 5f ea ed bd c6 63 d1 3d e2 a5 59 be
       -0.33430895 -0.11616968 0.102241084 -0.21254686
000110 01 0e 8d 3e 0b 6b b7 bd 80 ac 61 3e 49 76 e1 3e
       0.27549747 -0.08955964 0.2203846 0.44035557
000120 76 e6 28 3e 7d ee de 3d 26 b4 39 3d bd 09 7b 3d
       0.16494164 0.10885332 0.04533782 0.061288584
000130 b6 db e0 bd da 23 7d 3d 38 0e 4b bd 35 f4 91 be
       -0.109794065 0.06180177 -0.049574107 -0.28506628
000140 9f 0a 6d bd aa 49 16 be d4 45 73 3e 5f 33 ba be
       -0.057871457 -0.14676538 0.23757106 -0.36367318
000150 e3 65 30 be 09 d0 25 3e bb f3 6f be 05 f3 5c 3d
       -0.17226367 0.1619264 -0.2343282 0.0539427
000160 a5 0d d1 be 02 b3 81 bd b4 55 d2 3d 40 60 99 3d
       -0.40830722 -0.06332971 0.10270253 0.07489061
000170 d8 5a dd 3d f2 d0 11 3e e4 07 42 3e 42 8e db bc
       0.10808343 0.14239863 0.18948323 -0.026801232
000180 c8 0a b0 3e 0d a2 06 3e 2b 5e 58 be b3 aa eb 3c
       0.34383225 0.13147755 -0.21129672 0.02876792
000190 cc 99 15 3d 2c 13 e9 bc 29 81 47 3e a6 8a 46 3d
       0.036523625 -0.028451525 0.19482864 0.04847207
0001a0 8f f9 9d 3d 31 af c8 3d e0 c6 0c bd b4 0c b8 bd
       0.07713615 0.0979904 -0.03436935 -0.08986798
0001b0 6c fa cc 3d 26 50 75 3e a3 3d 8a bd e1 c0 28 be
       0.10008702 0.23956355 -0.067500375 -0.16479827
0001c0 2a d2 10 be 1b 44 2c 3e e1 c5 3e be e3 e8 74 bd
       -0.14142671 0.16822855 -0.18630172 -0.05979241
0001d0 2e 0f 99 be 5e 4f 2e be c4 ee ad be 58 88 e8 3c
       -0.29894394 -0.17022464 -0.33971226 0.028385326
0001e0 75 5e 9e 3e 3f 08 f7 3c 5c e9 80 be f6 32 e3 bd
       0.3093144 0.0301553 -0.2517804 -0.110937044
0001f0 76 a7 20 be 61 ac 22 3e db 2e e2 bd 5d 41 54 3e
       -0.15688881 0.1588607 -0.11044093 0.20728059
000200 79 af fa 3d 61 66 a4 bd 63 a7 00 be 31 51 03 3e
       0.122405 -0.0802734 -0.12563853 0.12823941
000210 36 e7 2a 3e 0d eb de 3d 11 5c c8 3d be b9 20 3e
       0.16689762 0.10884676 0.09783185 0.15695855
000220 99 03 2a bd 19 9b b2 3d 62 63 cb bc 4d 13 84 3e
       -0.041507337 0.08720989 -0.024827663 0.25795975
000230 91 24 94 bd 60 99 02 3f 7c 48 dc bd c1 16 89 3e
       -0.07233537 0.5101528 -0.10756013 0.26775172
000240 c5 1e f2 3d 39 c9 ff 3d 43 4f bd 3d 96 bb 4e 3e
       0.11822275 0.12489552 0.092436336 0.20188746
000250 e0 99 7d 3d aa a5 94 3d 8d 97 1e be 08 08 65 3e
       0.061914325 0.072581604 -0.154875 0.22366345
000260 ed fc 0b 3d 0d 6c 8a 3d 65 c7 0d 3e c2 6a b5 bd
       0.034176756 0.0675889 0.13845594 -0.08858253
000270 75 2d fe bd 56 a1 10 3d 6d 12 13 be 7d 44 78 3d
       -0.12411014 0.035310112 -0.14362498 0.06061219
000280 8e 51 e3 bd 2d be f9 bd 67 32 4b be 01 f6 25 3e
       -0.1109954 -0.12194476 -0.19843446 0.16207124
000290 6c 88 1d 3a f6 d7 c7 bd f9 18 a1 bd 57 4c 9d bd
       0.0006009403 -0.09757988 -0.07866091 -0.07680576
0002a0 b4 3e d5 be 67 73 9b 3c d7 e8 57 3e 16 69 17 3e
       -0.416494 0.018975927 0.21084915 0.14786181
0002b0 3a 18 84 be 4a 4d 2d 3e ee 49 ff 3d 7b 49 77 3b
       -0.25799733 0.16924015 0.12465273 0.0037733007
0002c0 9a 77 68 bd 34 6e c4 3e 99 50 ff bd 1f 2a b1 3d
       -0.056754686 0.38365328 -0.12466545 0.08650612
0002d0 27 c8 0c be 2b c1 37 bd 30 09 19 3e 98 d8 f6 3d
       -0.13748227 -0.044861954 0.14944911 0.12053031
0002e0 62 00 18 3e 8d 3b 9a 3e 2c fa f6 3d 77 37 82 be
       0.14843896 0.3012356 0.12059435 -0.2543294
0002f0 dd 17 25 3e ef 50 22 3e 11 ff b4 be 11 65 a6 bb
       0.16122384 0.15851186 -0.3535085 -0.005077966
000300 e6 80 15 3d 16 c1 69 be 69 c8 d4 be 91 84 aa 3e
       0.03649988 -0.22827563 -0.4155915 0.33304265
000310 69 de 23 3d 80 57 83 be 45 d4 87 bd a3 a2 74 3e
       0.04000703 -0.25652695 -0.06632284 0.23890166
000320 81 87 c0 3e 7c 9a 68 be f6 08 65 be fd 5c 04 3e
       0.3760338 -0.22715181 -0.223667 0.12926097
000330 f5 e1 2a bc e4 00 2b be 70 e3 76 3d 08 e6 9b bd
       -0.010429849 -0.16699558 0.060275495 -0.07612234
000340 67 0a a3 3d 1e 3d eb 3d 78 6c 26 3e fc 6f f7 bc
       0.079609685 0.114862666 0.16252315 -0.030204765
000350 83 8e 20 be 13 a8 22 3e eb 83 a0 3e b2 51 f4 bc
       -0.15679364 0.15884428 0.31350645 -0.029824112

resnet.layers.1.weight f4 [8]
000000 97 bb 8c 3f 80 ea 83 3f 6c 77 8e 3f a0 21 95 3f
       1.0994748 1.0305939 1.1130195 1.1650887
000010 27 d9 72 3f 5b 8a 9f 3f da 5d 83 3f fa 36 6d 3f
       0.948626 1.2464098 1.0263016 0.9266201

resnet.layers.1.bias f4 [8]
000000 b2 53 b0 bc 09 c1 f8 bd 8e 77 db bd 9e 60 1c be
       -0.021524284 -0.121461935 -0.107161626 -0.15271232
000010 27 56 d7 bd bb a8 04 3e d9 b2 ac bd 99 e4 0b be
       -0.10514479 0.1295499 -0.0843255 -0.13661422

resnet.layers.1.running_mean f4 [8]
000000 bc 5b 04 3e 32 0a 1e 3e 3e ad 34 bd f4 23 12 3e
       0.12925619 0.15433577 -0.04411053 0.14271528
000010 ac 02 a6 bd 71 fc 5d 3e ec 87 05 3e de d4 42 3d
       -0.08105978 0.2167833 0.13040131 0.047566287

resnet.layers.1.running_var f4 [8]
000000 8c 8e 9a 3d 16 44 cd 3d e6 52 be 3d 6a 50 c2 3d
       0.0754672 0.10022752 0.09293155 0.09487994
000010 f4 51 22 3e 0d 3f 13 3e 0e c2 05 3e bf a0 db 3d
       0.15851575 0.1437952 0.13062307 0.10724019

resnet.layers.3.layers.0.weight f4 [8, 8, 3, 3]
000000 2f 6a 66 3e a1 51 83 3e 8c ec 53 bd 91 fb cb 3d
       0.22501443 0.25648215 -0.05173926 0.09960092
000010 d3 08 48 3c 14 79 90 3c 70 ce 4d bd ae c4 15 bd
       0.012209135 0.01763586 -0.050245702 -0.03656452
000020 e2 bd 54 bd df 1f b2 3d 98 23 96 3e 95 99 b6 3c
       -0.0519389 0.08697485 0.2932403 0.02229003
000030 a2 2c 01 bd 52 0f 0e 3d 30 75 8b 3d 84 5c dd bc
       -0.031536706 0.03468258 0.06809461 -0.027021654
000040 a0 40 65 bd eb 3e 3a be 18 2e 8c be 62 10 43 be
       -0.055969834 -0.18188064 -0.27378917 -0.19049218
000050 6d e8 fe 3c 5b 50 a9 3d 21 6c 05 3e 6c e4 1f 3e
       0.031116689 0.0826728 0.13029529 0.1561448
000060 16 f9 bb 3d c3 7e 99 3e 53 06 82 3d e2 e8 d2 3d
       0.09178369 0.29979524 0.063488625 0.10298325
000070 e2 58 df 3d 24 10 ab bc 56 b6 2d bd 86 cf 7c be
       0.10905625 -0.02088172 -0.042410217 -0.24688539
000080 68 7c 01 3e b3 73 3b bc ed b6 19 3e 73 5e f5 bc
       0.12645113 -0.011441159 0.15011187 -0.029952263
000090 a1 4f ec bd 61 58 4e 3e c6 fe b7 3d 26 71 f2 3d
       -0.115386255 0.20150901 0.08984141 0.118379876
0000a0 b5 71 06 3e 60 78 16 3d 33 7b 17 be 02 3c 6d bd
       0.13129313 0.036735892 -0.1479309 -0.057918556
0000b0 eb 4a a9 3d f7 a5 f4 bc 91 1e 72 be e4 53 8a 3e
       0.082662426 -0.029864294 -0.23644473 0.27017128
0000c0 36 bb f5 bc 0d 66 a9 3d 89 b0 f0 3c a9 ad 8c be
       -0.029996496 0.08271418 0.029381054 -0.27476242
0000d0 00 0f dc 3b 40 43 bd bb 84 19 9f 3d 1c c4 71 3c
       0.0067156553 -0.005775839 0.077685386 0.014756229
0000e0 5d 7d f2 bd 23 63 e6 3d 3a 2d bb 3d 0a 50 0a 3e
       -0.118403174 0.112493776 0.09139486 0.13507095
0000f0 d2 a3 9a 3d 0e 2c df 3d 56 b4 e8 3d e1 d6 f2 3c
       0.075507775 0.10897075 0.11362521 0.029643478
000100 40 c8 d9 bd eb a8 43 3e 67 78 e5 bd 3c 35 ca bd
       -0.10633898 0.19107406 -0.112046055 -0.09873435
000110 1c 17 6e bd cf 73 95 3d a5 98 73 be 1d 64 24 3d
       -0.058127508 0.07297479 -0.23788698 0.040134538
000120 4e fa 8e 3c d1 bc 85 be d4 a9 ce bd bd 21 b3 3d
       0.017453339 -0.26120618 -0.10090986 0.087466694
000130 5d e4 b4 bc 84 9c 98 3d 21 19 6a bc 36 a9 99 3d
       -0.022081548 0.07451728 -0.014288218 0.075029776
000140 fa 6c 1a be 30 57 d1 3d 7d 97 3d bd 4f a2 ad bc
       -0.15080634 0.10221708 -0.04628705 -0.021195559
000150 8f fb ce bd e7 28 cc 3b 10 f1 e6 bd e8 a7 d1 bc
       -0.10106575 0.006230462 -0.11276448 -0.02559276
000160 6d 05 66 3c 33 10 f5 bd bf 3b cc bc 1d 27 e2 3c
       0.01403938 -0.119659804 -0.024930833 0.027606541
000170 7e 70 93 3d 15 b7 d1 3d 50 72 00 be 54 6b 00 be
       0.071991906 0.10239998 -0.12543607 -0.12540942
000180 5c 73 4c be 04 a9 3e be c4 bb 75 3e 8d ff 84 bd
       -0.19965881 -0.18619162 0.23997408 -0.06494055
000190 fe f8 09 bd b4 16 8f 3c 7d 7f 7c 3d 0b ad 0d 3d
       -0.033684723 0.01746688 0.06164502 0.034588855
0001a0 06 83 f3 bd 1d ed 51 bd c6 bd 2d be 02 54 38 3a
       -0.11890225 -0.05125152 -0.16966924 0.0007031561
0001b0 a1 af c9 bd aa 2f b3 3c 67 61 6d 3e 66 55 06 be
       -0.09847952 0.021873314 0.23181687 -0.13118514
0001c0 84 da 22 3e cc c7 6c 3d 27 ab 9b bd 40 b5 02 3c
       0.1590367 0.05780773 -0.07601004 0.007977784
0001d0 2a 2b 4b bc a2 e1 92 be 33 43 81 3b 76 86 e3 bc
       -0.012400428 -0.2868777 0.0039447783 -0.027774077
0001e0 eb 81 9d bd ee 30 e9 bd 32 a7 a4 be 03 09 01 3e
       -0.076907955 -0.11386286 -0.3215881 0.12601094
0001f0 0d cb 8b be ae 01 5b be a8 ec f1 bd ba b3 eb bd
       -0.27303353 -0.2138736 -0.11812717 -0.115088895
000200 db 5c 09 3c f6 01 1a be 67 db 3b 3e 12 62 c8 3d
       0.008383955 -0.1503981 0.18345414 0.097843304
000210 43 df 07 be c6 2f b5 3d 5e 90 88 3e 9a 0b 11 3e
       -0.13268761 0.08847003 0.26672643 0.14164582
000220 69 34 1d be 70 2d 10 bd b7 6c 3d be d1 17 2e bd
       -0.15352024 -0.035199583 -0.18498503 -0.04250318
000230 df 2a 5b 3d e7 2d 1e 3e 4b 12 f3 3d b7 a6 82 3d
       0.053507682 0.15447198 0.118687235 0.063794546
000240 e2 ed 8a 3d 83 a9 5b bd d2 6f 6b 3e e1 c9 0d be
       0.06783654 -0.053628456 0.22991875 -0.13846542
000250 e6 b8 ab 3e 83 62 49 bc fa 03 24 3d 56 d8 92 3c
       0.33539504 -0.012291553 0.040042855 0.017925423
000260 8e c7 54 3d 71 90 7d bc 0d 3a 42 3e ff 13 b8 bd
       0.051948123 -0.015476332 0.18967457 -0.08988189
000270 b8 cf 3b be b8 97 22 be 04 7a 4e 3e 8f e1 bb bd
       -0.18340957 -0.15878189 0.20163733 -0.09173881
000280 38 3e 11 3e 57 2d c1 bd 30 4a 63 be 32 38 63 be
       0.14183891 -0.09432476 -0.22196269 -0.22189406
000290 35 f2 ac 3d 99 e0 03 3e e5 57 df bd 0b b5 2c 3e
       0.08444635 0.12878646 -0.109054364 0.16865937
0002a0 0c 6c 75 bd 90 dc d4 3d 55 e3 d7 bc 1d 1a 93 3d
       -0.059917495 0.103936315 -0.026353518 0.07182715
0002b0 59 52 a1 3d 2f ae 80 3c 3a 45 c2 bd 2a e0 3e be
       0.07877035 0.015708057 -0.0948586 -0.186402
0002c0 ba 01 d0 bd 11 5f e2 bc 6f c9 06 be 50 43 86 3d
       -0.10156579 -0.027633222 -0.13162778 0.065558076
0002d0 38 6d 43 be da 12 32 bd 47 60 f2 3d c1 db c0 bb
       -0.19084632 -0.04347501 0.1183477 -0.0058855717
0002e0 c5 88 4a 3e 5f d4 21 be 1b ac 96 3d 26 f0 81 3e
       0.19778736 -0.1580367 0.07357045 0.2537853
0002f0 e9 68 27 3e 74 b4 65 be 6e 9a b9 bd a1 4b 78 be
       0.16348614 -0.22432119 -0.09062658 -0.242476
000300 e4 d2 d2 3c 5c d5 64 be ca e5 04 3e dc 8c 22 be
       0.025735326 -0.22347015 0.12978283 -0.15874046
000310 0b e0 1f bd b8 63 8b bd c6 a2 22 be 7e 3c 4e 3e
       -0.039032023 -0.06806129 -0.15882406 0.20140263
000320 88 66 a5 bd 7f 89 a8 bc b4 97 04 bd 1c 92 aa bd
       -0.08076197 -0.020573376 -0.032371238 -0.083286494
000330 a9 b1 5c be b2 e1 80 bc 17 01 fa 3c 2b 5a 8a bd
       -0.21552147 -0.01573262 0.030518098 -0.067554794
000340 a8 9e 4f be bd c9 2e 3e be d1 1f 3e d9 3c d1 bd
       -0.20275366 0.17069145 0.15607354 -0.10216684
000350 99 95 f3 bc 66 97 a1 3a 97 be 68 be 4a e2 4e bd
       -0.02973442 0.0012328445 -0.22728954 -0.050508775
000360 96 9b 95 3c ca 80 bd 3d 0c 92 fc 3c fe 2d 29 be
       0.018262666 0.0925308 0.03083136 -0.16521451
000370 35 4d b1 be 6d 0d b7 3d ce d4 dc 3d f1 ee f8 3d
       -0.34629217 0.08938108 0.10782777 0.121549495
000380 d1 49 93 bd 09 98 eb 3c a6 4f 6f bd 30 cc 19 3d
       -0.07191814 0.02875902 -0.058425568 0.037548244
000390 e5 0f ee 3b 9f b1 cc 3d 28 c2 86 be 2e 6f 39 bd
       0.0072650784 0.09994816 -0.26320004 -0.045272045
0003a0 ca 6f 3a bd 9f ff 73 bd f7 8b 18 3e a2 ea 81 bd
       -0.045516767 -0.05956995 0.14897142 -0.06343581
0003b0 ed 37 1f bd f9 b2 cf bd e7 a2 a0 3e 16 21 1f be
       -0.038871694 -0.10141558 0.31374285 -0.15539965
0003c0 79 49 c5 3d 84 d5 85 bc 0e bb d3 3d a0 fe 66 be
       0.096331544 -0.016337164 0.10338412 -0.22558069
0003d0 97 83 f4 bd e2 49 8d bd cc f6 01 be a2 c6 9c 3d
       -0.11939161 -0.06898858 -0.12691802 0.07655074
0003e0 49 bc 8c be aa 86 7a bb 80 61 5f 3e 8b 78 37 be
       -0.274874 -0.0038227239 0.21814537 -0.17917077
0003f0 b8 98 cf 3d 38 87 19 bd 64 85 b1 bd bc c0 20 3b
       0.10136551 -0.03748247 -0.0866802 0.002452894

resnet.layers.3.layers.1.weight f4 [8]
000000 5a e2 86 3f 1c 7c 96 3f 93 87 62 3f 09 f7 81 3f
       1.0537827 1.1756625 0.8848812 1.0153514
000010 28 46 92 3f 1e e9 9f 3f be 66 8d 3f 0b 56 8f 3f
       1.142766 1.2493017 1.104698 1.1198133

resnet.layers.3.layers.1.bias f4 [8]
000000 74 9d 3c be 25 3f e2 3d b4 09 7c be ad 7b 19 be
       -0.18419439 0.110472 -0.24613076 -0.14988585
000010 a4 b6 08 be 96 7d 85 be 91 1c 3d be 8b 60 87 bd
       -0.13350922 -0.26072377 -0.18467928 -0.06610211

resnet.layers.3.layers.1.running_mean f4 [8]
000000 1a 2e 15 3e a5 0a 05 bf 2e 4b 8b be 43 67 94 be
       0.14568368 -0.5196937 -0.27205795 -0.28985032
000010 dd 6b 4e 3e 91 a0 67 be eb 1c 9f 3d c4 e4 0d bf
       0.20158334 -0.22619845 0.077691875 -0.55427194

resnet.layers.3.layers.1.running_var f4 [8]
000000 ee 2d 07 3f 91 0c 16 3f 56 2d 5f 3f c3 84 d0 3e
       0.5280446 0.58612925 0.8717855 0.4072629
000010 d4 99 83 3e d0 51 2a 3f d8 c8 ff 3e a2 ce 8e 3f
       0.257033 0.66531086 0.4995792 1.1156809

resnet.layers.3.layers.3.weight f4 [8, 8, 3, 3]
000000 22 e8 3c be 9c 2b bc bc 6c 55 38 3e 4c 69 5a 3d
       -0.18447927 -0.022970013 0.18001336 0.053323075
000010 0e 65 39 3e ea b7 f0 3d bb 0b 02 be e3 17 43 be
       0.18104956 0.11753829 -0.12699787 -0.19052081
000020 53 5c 19 3e c3 16 0e 3d 17 fc d0 3d 0e 23 87 bb
       0.14976625 0.034689676 0.10204332 -0.004124052
000030 5c 6b 82 bc cf 89 70 bc 40 fc 8d bd 32 8c 80 bd
       -0.015920334 -0.014681294 -0.069328785 -0.0627674
000040 37 59 a9 bd 71 19 00 3e 64 a3 1f 3c 89 79 b4 3d
       -0.082689695 0.12509705 0.009743545 0.088122435
000050 58 f7 03 be ed 85 32 bd 1b 39 16 3e 4b f2 81 3c
       -0.12887323 -0.043584753 0.14670222 0.015862605
000060 0f b7 22 be e5 b8 b4 3d 2c 9f cf bc 1b 16 1b be
       -0.15890144 0.08824328 -0.025344454 -0.15145151
000070 6f 87 67 3e f0 c2 2a be 1a fe c0 3d 47 59 9a 3d
       0.22610258 -0.16675925 0.09423466 0.075365596
000080 f5 01 a2 3d 60 4f 03 3e e2 7d 8d 3d 6d c5 da 3d
       0.079105295 0.12823248 0.06908776 0.10682187
000090 e1 5c 54 3e fa 3e 20 bd 5c 28 22 3e f1 b5 89 be
       0.20738555 -0.03912256 0.15835708 -0.26896623
0000a0 a1 05 12 3e 21 34 10 3d 33 7d 81 be 0b 52 8e be
       0.1425996 0.035205964 -0.25290832 -0.2779697
0000b0 11 0c 9e be a8 06 4e 3d 21 19 3a bd 35 71 ed bc
       -0.3086858 0.050299317 -0.04543412 -0.028984645
0000c0 21 99 bc 3c 46 78 16 bd b0 12 35 be bc f6 8a bd
       0.023022236 -0.036735795 -0.1768291 -0.06785342
0000d0 61 fe 14 be 9d af 6d 3d cc 8f 08 3d 6c d3 0e 3e
       -0.14550163 0.058028806 0.03334026 0.13947839
0000e0 47 ff d9 bc 8e 48 29 be 88 33 2e bc 60 6e ec 3c
       -0.026610984 -0.16531584 -0.010632403 0.028861225
0000f0 c1 1e 90 bd 15 5c e7 3c 5b fa a0 3d e2 2b 34 be
       -0.07037116 0.02824215 0.078602515 -0.17594865
000100 c6 fa 46 3e 07 12 3a be 47 6c 11 bd 56 46 d8 bd
       0.194316 -0.1817094 -0.035503652 -0.105602905
000110 13 c2 27 3e e5 4d 2f 3e 1c c4 d6 bd e8 29 14 be
       0.16382627 0.17119558 -0.10486624 -0.14469111
000120 51 5d af ba 39 1d 85 3e 06 8b 28 3e c6 d4 ae 3c
       -0.0013379251 0.25998858 0.16459283 0.021341693
000130 42 fe f4 bd ba 73 ef 3c 8f 5c 06 3d 3c 8d 0b 3d
       -0.11962558 0.029229987 0.032803115 0.03407024
000140 be 74 99 3d 06 1f 5f be a8 e0 51 be e3 87 77 bd
       0.0749297 -0.21789178 -0.20495856 -0.060432326
000150 f8 c4 3f be e1 d5 86 3d 84 fc 95 3d 36 de 8e be
       -0.18727481 0.06583763 0.07323554 -0.27903908
000160 26 59 8e bd 68 0d 57 bd 4a 0c fd bd ae e3 a3 bd
       -0.069505975 -0.05250302 -0.123558596 -0.08002411
000170 b2 0c 12 3e 38 bf 2d bd ba 77 52 be c4 47 7b 3e
       0.14262655 -0.04241869 -0.20553485 0.24539095
000180 2b 37 64 bd 4b 75 85 3e d0 07 5d be 80 e4 e6 bc
       -0.055716675 0.2606605 -0.21585011 -0.02818513
000190 1f 5c 21 3c cc 4a 1b 3e ed 69 27 bd 73 e2 ca 3c
       0.009848624 0.15165251 -0.040872503 0.024766183
0001a0 e9 0f 12 be 89 22 7d bd eb 31 29 be c7 89 68 3d
       -0.14263882 -0.061800513 -0.16522948 0.05677202
0001b0 d0 98 9d bd f5 f4 84 3d 30 14 af 3d 10 d4 93 bd
       -0.07695162 0.06492034 0.08548772 -0.07218182
0001c0 9a 80 61 be fb 25 ce 3d 16 3c 61 3e 2d ac 16 3e
       -0.22021714 0.10065838 0.21995577 0.14714117
0001d0 34 93 61 bd 77 5b 98 bd 9a 99 44 3d 14 b6 26 3c
       -0.055072024 -0.074393205 0.04799805 0.010175247
0001e0 a6 a6 80 3d 63 cd 26 3d a7 b8 fd 3d 2d 9b 01 3e
       0.06281786 0.040723216 0.12388735 0.12656851
0001f0 e7 83 0e 3e cc 6b fc be 6a 3d 37 be be fc b1 3c
       0.13917504 -0.49300992 -0.17894521 0.021726962
000200 2c c8 17 bd 4b b1 39 be b3 a2 a5 3d 67 73 4f be
       -0.037056133 -0.18134038 0.08087673 -0.20258866
000210 da b9 b0 bd 60 e7 3e bd ee 23 8e 3d 6d 60 85 be
       -0.08629198 -0.046607375 0.06940447 -0.2605013
000220 cc 46 2d 3d 85 a8 fb bd 65 06 24 be d6 27 9f 3c
       0.042303845 -0.12288002 -0.16018064 0.019428175
000230 81 5b 82 bd 02 03 f0 bc 0c 46 7b bd 51 74 66 3e
       -0.06365109 -0.02929831 -0.0613461 0.22505309
000240 ba f7 22 3d 0a 61 c4 bd d2 f0 3a bc 7d 88 ed 3d
       0.03978703 -0.09588821 -0.011409955 0.11598299
000250 f1 fb 25 be ab ac 8a ba 58 15 a7 bd fa 47 3e be
       -0.1620939 -0.0010580024 -0.08158368 -0.18582144
000260 3d 60 3b 3d a7 0a 7f be 0f 05 30 be b3 1b 16 be
       0.045746077 -0.24906407 -0.1718943 -0.14659004
000270 2e 83 b1 be fe 07 bc bc 58 0a 0d 3e ec 17 e3 bb
       -0.34670395 -0.02295303 0.13773477 -0.006930342
000280 be 11 c6 3d 70 58 39 be 79 44 05 3e 8c 8e bc bd
       0.09671353 -0.18100142 0.13014401 -0.09206876
000290 de 20 6c bd 63 37 ed 3b 6d 25 56 bb e0 11 19 bd
       -0.057648532 0.0072392686 -0.0032676116 -0.037370563
0002a0 be 80 98 bd d5 00 bf b9 2c 52 56 be c5 89 4e bd
       -0.074464306 -0.0003643098 -0.20929784 -0.050424356
0002b0 9b 30 03 3e ae e3 14 be cb 3a 16 be 9b 06 45 be
       0.1281151 -0.14539978 -0.14670865 -0.19240801
0002c0 94 5f 23 3e 71 96 ec 3d 2e 04 62 be 19 25 27 be
       0.15954429 0.11552132 -0.22071907 -0.16322745
0002d0 c7 a8 ce 3d 6b d6 28 3d 4e 49 03 3e 5e 9d ab be
       0.100907855 0.04122011 0.12820932 -0.335185
0002e0 ca bb 47 bd e1 1e 87 3d 81 9e 6b bd 76 9f f5 bb
       -0.048763074 0.065976866 -0.057524208 -0.007495816
0002f0 6d 50 63 3e df d1 94 3d 04 89 ad bd 96 73 e4 bd
       0.22198649 0.07266592 -0.08473399 -0.11154859
000300 e2 d0 bb 3d 64 ea 69 3e ae df 1d be 3e cd a0 be
       0.091707006 0.22843319 -0.15417358 -0.31406587
000310 0f b8 8d be 08 bf 10 be 93 04 6d 3e 1f c0 37 be
       -0.27679488 -0.14135373 0.23146276 -0.17944382
000320 3f 99 68 3d d7 5c 83 3e 36 0d 17 be 26 9c 53 be
       0.056786772 0.2565677 -0.14751133 -0.20665035
000330 24 90 0b 3d fc f3 f0 bd 98 36 ef bd 19 43 13 bd
       0.03407301 -0.11765286 -0.11680335 -0.03595266
000340 8a 6b 1d bc e9 25 b5 bd 93 1b 71 3c 94 a6 79 be
       -0.009608159 -0.088451214 0.014716047 -0.24379951
000350 71 42 1c be 0f d7 75 3d 51 50 a5 bd 03 4d 56 bd
       -0.1525972 0.06001955 -0.0807196 -0.052319538
000360 d6 c0 82 3d b6 1e 24 3d 56 f4 f2 bd 95 50 1a 3e
       0.06384437 0.04006835 -0.1186301 0.15069802
000370 92 01 dc 3b a2 6e bd be 4d 22 68 bd 55 60 0f 3c
       0.0067140544 -0.3699847 -0.056673337 0.008750995
000380 a8 6a 7b be be fe 71 be a7 46 d5 bd 9a 1c 77 be
       -0.24552405 -0.23632333 -0.104138665 -0.24132004
000390 5e e6 e4 bc b2 cc e4 3d dd ac 98 bd c7 64 34 bd
       -0.027941879 0.11171855 -0.07454846 -0.04404142
0003a0 de e5 a1 3d 7e 66 94 3d 66 08 78 3c 3f 2f 30 bd
       0.07905172 0.07246111 0.015138721 -0.043013807
0003b0 9a 53 68 be 13 75 2f bd d7 e2 da bd 8d 47 bd bd
       -0.22688141 -0.04283626 -0.106877975 -0.09242163
0003c0 a2 4e 22 3d 8c af 07 bd 32 60 b2 3d 6c 26 19 be
       0.03962577 -0.0331264 0.08709754 -0.14956063
0003d0 2e 1e 98 bc 41 65 3b be 8c 42 70 3e a6 bd f1 b8
       -0.018569078 -0.18300344 0.23462886 -0.000115271
0003e0 cd 8a 4b bb 9f 59 04 3e 9b c3 1f 3e ce 33 88 be
       -0.0031058074 0.12924813 0.15601961 -0.26602024
0003f0 c0 e4 fd 3d f8 6c ed 3d 1b 13 df bd 6c 22 7b 3d
       0.12397146 0.1159305 -0.10892316 0.061312124

resnet.layers.3.layers.4.weight f4 [8]
000000 90 3f 7b 3f 3b e2 9c 3f fc dd 8b 3f b0 b5 5a 3f
       0.98143864 1.225654 1.0927119 0.85433483
000010 dd fd 85 3f f5 0f 8b 3f 6c 12 90 3f 89 66 84 3f
       1.0468098 1.0864245 1.1255622 1.0343791

resnet.layers.3.layers.4.bias f4 [8]
000000 76 58 a9 bd 7a 07 74 bd 17 09 0a be 70 4d a9 be
       -0.08268826 -0.059577443 -0.1348003 -0.33066893
000010 86 21 43 be fb f5 b9 bd ac 58 3b be ff c6 80 be
       -0.19055757 -0.0908012 -0.18295544 -0.25151822

resnet.layers.3.layers.4.running_mean f4 [8]
000000 e9 4f e2 bd 7f 2e 61 be 93 87 d7 be 71 66 54 be
       -0.11050398 -0.21990393 -0.42095622 -0.20742203
000010 55 86 da bd 1f 8c ac be f1 d3 41 3d 84 ca f8 bd
       -0.10670153 -0.33700654 0.047321264 -0.12148002

resnet.layers.3.layers.4.running_var f4 [8]
000000 b2 17 8f 3e 83 4b f7 3e a4 00 1b 3f a2 22 df 3e
       0.27947766 0.48299798 0.6054785 0.4358111
000010 16 55 d3 3e 00 49 cd 3e 3f 87 f2 3e d9 12 c5 3e
       0.41275853 0.40094757 0.4736881 0.38490942

resnet.layers.4.layers.0.weight f4 [8, 8, 3, 3]
000000 05 43 63 3e 92 56 0b 3e 46 cb a1 bd d1 b5 2e 3e
       0.22193535 0.13607243 -0.079000995 0.17061545
000010 a0 d0 8d 3d e6 13 2d 3e dd f7 bf bd a3 f7 c9 bc
       0.06924558 0.16902122 -0.09373448 -0.024654215
000020 c0 be ac bd b3 04 94 bd 49 de ee bd d2 bf 05 bd
       -0.0843482 -0.07227459 -0.11663491 -0.032653637
000030 24 8b d3 3d 52 b1 14 3e ff 13 b1 3d d9 dd c2 3d
       0.10329273 0.14520767 0.08646392 0.0951497
000040 be 10 b1 3d 10 5b 2a be 1e e6 79 be 68 6b 21 3e
       0.086457714 -0.166363 -0.24404189 0.15763628
000050 89 f8 14 bd 11 6a 84 be ac 0f 51 3e 6e 78 e2 3d
       -0.036369834 -0.25862172 0.20416135 0.110581264
000060 77 8a a9 3a 9f 78 09 be 69 92 85 3c 8f fa 87 3d
       0.0012934942 -0.1342492 0.016305165 0.06639587
000070 07 d6 08 3c 71 6c f9 3d 3b 6e b4 3d 89 f5 f8 bb
       0.008351809 0.12178887 0.08810087 -0.0075976294
000080 c3 3d 45 3d 76 47 d4 3c 6d ae 4e 3d f2 da 8d 3d
       0.048154604 0.025912981 0.050459314 0.06926526
000090 a1 48 cb bd e2 07 4a bd 0c 8e 68 be 84 9e ab 3d
       -0.09925962 -0.049323924 -0.22710437 0.08379844
0000a0 c0 ab d1 3c 91 8e 59 bd 17 d2 da 3d d5 49 cf 3c
       0.025594592 -0.053114478 0.10684603 0.02530376
0000b0 38 00 b6 bd 2a 8f 1f be 55 67 07 be 98 44 82 3e
       -0.088867605 -0.15581957 -0.13223012 0.25442958
0000c0 b5 5d 9e bd 8f 94 cb bb 5c 8a d9 bd 8c 3d bf bc
       -0.07732717 -0.006212778 -0.10622093 -0.023344778
0000d0 cc fb ae 3d ad 07 5f be f8 1f a9 3d 99 0b cb 3d
       0.0854412 -0.21780272 0.08258051 0.099143215
0000e0 b9 38 6a bc 78 de 3e 3e 4f 3a 6e 3e 94 b2 9c bd
       -0.01429575 0.18639553 0.2326443 -0.076512486
0000f0 10 76 7b 3d a9 83 01 be 24 75 2e be d3 af 01 3e
       0.06139189 -0.1264788 -0.17036873 0.12664728
000100 db e2 3f 3e ab 52 00 be f0 03 2c be c5 10 88 3d
       0.18738882 -0.12531535 -0.16798377 0.066438235
000110 18 dd 90 3d ad 16 ed 3c 67 d1 1c be bb a5 7f 3e
       0.0707342 0.028941477 -0.15314256 0.24965565
000120 17 85 f7 bd a2 12 53 bd a0 7d b6 bc 13 6c b2 bd
       -0.12085932 -0.05153144 -0.0222767 -0.0871202
000130 e3 6a f7 bd 8c b8 24 3e fb 52 31 3c 9d d1 01 be
       -0.12080934 0.16086024 0.010823007 -0.12677617
000140 45 ec 87 3d 22 5c 84 bd 8f 4e 7e bd dd 15 0d 3e
       0.06636862 -0.064628854 -0.062086638 0.13777871
000150 90 1d ff 3d b3 a6 0b 3e 03 6b 98 bd 11 f5 31 be
       0.124568105 0.1363781 -0.07442286 -0.17378642
000160 91 3b ef 3c 85 84 4a be 84 01 d5 bc 4c 5f 12 3e
       0.029203208 -0.19777115 -0.0260017 0.14294165
000170 f7 68 00 be 63 d5 4b 3c 28 ef e6 3d 58 4e 46 3e
       -0.12540041 0.012441012 0.11276084 0.19365823
000180 91 5c 06 be 77 e8 24 be 47 7f 1b be f2 d9 58 be
       -0.13121249 -0.16104303 -0.15185271 -0.2117689
000190 45 02 e7 3d 34 e4 33 be 5d de b8 3d a9 1a 6e 3d
       0.1127973 -0.17567521 0.090267874 0.058130894
0001a0 00 95 23 3d e2 3d 8c 3d 72 ed e0 ba 81 b4 14 be
       0.03993702 0.06847741 -0.0017160608 -0.14521982
0001b0 75 9e c6 bc c7 c9 6d be 02 1f 3b 3d 43 fe 75 bd
       -0.02424548 -0.23221503 0.04568387 -0.060056936
0001c0 ad cc 68 3e 64 3a b7 bd 25 40 94 be bb 1d 45 3e
       0.22734328 -0.08946684 -0.28955188 0.19249623
0001d0 7d c2 39 bc 74 a5 65 be 34 9b b7 bd 8b 9a cf 3d
       -0.0113378735 -0.22426397 -0.089651495 0.101368986
0001e0 cc dd 16 3c a2 74 af bd 05 2c 0e be 00 4d 22 3e
       0.009208154 -0.08567168 -0.1388398 0.15849686
0001f0 17 8d ef 3d 51 f3 e6 bd 31 5a 96 bd b2 17 d9 3d
       0.116968326 -0.11276878 -0.073414214 0.10600223
000200 6e 65 9d be 15 97 a5 3c 00 23 ba bd 2c ba 1d be
       -0.30741447 0.020213643 -0.09088707 -0.1540305
000210 ec 14 8b be 55 86 60 3d 99 49 b8 3c 89 fa 01 bd
       -0.271644 0.05481561 0.022496032 -0.03173307
000220 9e 7a 7d 3d 09 bc a5 be 65 0a 95 be 40 af 07 3e
       0.061884515 -0.32370022 -0.29109493 0.13250446
000230 84 43 a8 3d bc c3 07 3d 1b 14 c0 bd 70 c4 20 3e
       0.082160026 0.03314565 -0.09378835 0.15699935
000240 c1 70 fb 3d 1c 68 2f 3d e5 e5 00 3e da 58 41 bc
       0.122773655 0.042823896 0.12587698 -0.011800969
000250 57 87 82 bd db 03 79 bd f6 d1 5a bc ca 16 f9 3d
       -0.0637347 -0.060794692 -0.013355723 0.1216255
000260 54 d1 38 3d 2c 61 ab 3c 41 d0 2d 3e fe 6c 4a be
       0.045121506 0.020920359 0.16973974 -0.1976814
000270 a5 0a 46 3c 49 cb 02 be b0 78 9e bc 96 be ec 3d
       0.012087499 -0.1277286 -0.019344658 0.11559789
000280 c6 9d d7 3d 9c 1c 64 bd 39 df 30 be 7b 5b 21 be
       0.1052814 -0.055691347 -0.17272653 -0.15757553
000290 e6 38 8a be 6d c3 b8 be 49 eb 6b 3e a5 e1 a4 3c
       -0.26996535 -0.36086598 0.23038973 0.020127127
0002a0 d2 c7 9b be da 65 06 3c 72 c8 2c bd 9b 2f be 3c
       -0.30425888 0.008202994 -0.042183347 0.02321606
0002b0 15 22 40 3e aa 34 3a be e7 a0 8a be 34 9a a6 3d
       0.18763001 -0.18184152 -0.27075884 0.08134881
0002c0 6e fd ad 3c bc 17 c6 3d 04 7b cf bc d6 dc 88 3c
       0.021239009 0.09672496 -0.025327213 0.016706865
0002d0 37 78 66 bd 26 04 30 3e 02 4d 99 bb 69 d1 e9 3d
       -0.05626699 0.17189083 -0.0046783695 0.11416895
0002e0 00 00 1e be cc 18 16 be 88 67 d4 bd f8 f8 33 3e
       -0.15429688 -0.14657897 -0.103713095 0.17575443
0002f0 a9 df 64 bc e5 df 2d be 3a 39 85 3e 5c 83 c5 3d
       -0.01396934 -0.1697994 0.26020223 0.096441954
000300 71 e8 84 3d 34 14 8a be d1 ae 71 3c ef 85 36 be
       0.06489647 -0.2696854 0.014751152 -0.17824529
000310 45 d5 e3 3d e0 e3 5e bd 28 28 83 be 92 73 28 3e
       0.11124662 -0.054416537 -0.25616574 0.16450337
000320 d0 9d d9 bd 53 ef df 3d e5 eb 8d 3d 72 35 0e be
       -0.106258035 0.10934319 0.06929759 -0.13887575
000330 b7 03 9c 3e 24 31 9c 3d c1 40 1c bd cc da eb bd
       0.30471584 0.0762656 -0.03814769 -0.115163416
000340 04 b6 3b 3d b9 1e b6 3c 6c f2 52 3d 64 d7 6b 3e
       0.04582788 0.022231447 0.051500723 0.23031384
000350 28 d5 18 bd d3 2c 92 bc c0 1d 4e 3d 09 e8 2c 3d
       -0.037312657 -0.01784364 0.05032134 0.042213473
000360 84 d9 90 3c 5a 77 29 bd 33 78 9b bc 2a d6 4f 3d
       0.017681845 -0.04137359 -0.018978214 0.050741352
000370 95 7e 46 be 0d e7 6a bc ed a2 00 3d 96 1f 6d be
       -0.19384225 -0.014337313 0.031405378 -0.2315658
000380 df d1 48 3e 18 0a 17 3d a7 e5 f3 3b 58 dc 78 3e
       0.1961131 0.03687486 0.007443148 0.24302804
000390 e9 28 96 3b 72 58 a6 be 2b f3 2b be 5a 5d 67 bd
       0.0045825136 -0.32489353 -0.1679198 -0.05648551
0003a0 bf 1c ea 3d a0 f8 23 bd 8a b8 c5 3d 47 bf 33 be
       0.11431264 -0.04003203 0.09654339 -0.17553435
0003b0 10 31 4c be d0 72 4b 3e ee 80 90 be 4b 81 5d be
       -0.19940591 0.19868016 -0.28223366 -0.21631353
0003c0 a8 91 85 be c0 18 39 3e 34 6c df 3c 5a b7 6a 3d
       -0.2608769 0.18075848 0.027273275 0.057303764
0003d0 45 dc 4a 3d 40 99 78 3e b4 8b e7 3d e3 4f 41 bd
       0.04952647 0.2427721 0.11305943 -0.047195327
0003e0 10 92 8e be e2 a7 bc bc a5 96 94 bd af a6 c4 bc
       -0.27845812 -0.023029272 -0.07255296 -0.024005262
0003f0 eb a3 d9 3c a6 a5 b6 bc 3b 4e bf 3d 94 0a 2c 3e
       0.02656742 -0.022295784 0.09341093 0.1680091

resnet.layers.4.layers.1.weight f4 [8]
000000 b8 37 73 3f 2b 96 8f 3f 1c e4 7e 3f ef ee 81 3f
       0.95006895 1.1217703 0.9956682 1.0151042
000010 1d d0 81 3f 33 b8 98 3f 37 af 80 3f d4 60 77 3f
       1.0141636 1.1931213 1.0053471 0.96632123

resnet.layers.4.layers.1.bias f4 [8]
000000 42 0e 29 be 2e fa 35 bd 99 ef 3b be 32 72 dd bd
       -0.16509345 -0.044428043 -0.18353118 -0.10812797
000010 8c 28 50 bd d3 16 23 bd b3 6d 70 bd 6d a8 aa bd
       -0.05081992 -0.03981669 -0.058698367 -0.08332906

resnet.layers.4.layers.1.running_mean f4 [8]
000000 9c c8 5a 3e b4 bf 9d be a4 f3 64 3d 1b 61 dd be
       0.21365589 -0.3081032 0.055896416 -0.43238148
000010 28 38 8e be 25 5e 55 bf cd d1 b4 be 14 47 a5 3e
       -0.2777722 -0.8334678 -0.35316315 0.3228079

resnet.layers.4.layers.1.running_var f4 [8]
000000 b5 b6 11 3f e2 94 00 3f b6 fe 1d 3f dd 50 18 3f
       0.56919414 0.5022718 0.61716783 0.5949839
000010 14 5b 2b 3f 4e 40 96 3f b4 b6 5c 3f d4 3c d2 3e
       0.6693585 1.1738374 0.8621628 0.41062033

resnet.layers.4.layers.3.weight f4 [8, 8, 3, 3]
000000 5c 83 59 3d 1d 55 46 bd 89 2f 81 3c 58 79 72 bd
       0.05310379 -0.048421014 0.015769737 -0.059197754
000010 74 db 18 be d4 3c 17 bd ac 5b 92 bd eb b6 5b 3d
       -0.14927465 -0.036923245 -0.07146391 0.05364124
000020 d3 85 bc bd a3 35 83 3e d5 fc 07 3e d9 72 17 be
       -0.092052124 0.2562686 0.13280042 -0.14789905
000030 da 34 14 3d 25 01 d7 bd e0 6d 44 be 5d 48 18 3e
       0.036183216 -0.10498265 -0.19182539 0.14871354
000040 3b f7 00 be ba e3 09 3d 4b bb 04 3e 99 ea 21 3d
       -0.12594311 0.033664443 0.12962072 0.03953037
000050 40 61 39 be 85 47 a3 bd 2f 8f 26 3d 78 2b 75 bd
       -0.18103504 -0.07972626 0.040663894 -0.05985591
000060 ab ec 84 3d 88 57 8c 3d f3 4d 4e be 4e df 75 bb
       0.06490453 0.06852633 -0.20146923 -0.0037517133
000070 cc 0f de bd d4 54 a9 3c 72 b7 d4 bc fe 1c d7 bd
       -0.10842857 0.020670332 -0.02596638 -0.10503577
000080 09 57 8a bd 8c cc cb bd d1 8f f7 bd b6 39 9a 3d
       -0.06754882 -0.099511236 -0.12087978 0.07530539
000090 b9 dd e8 bd f9 1b 13 3e 5d 7c 36 3e 9a 7f e5 3c
       -0.11370415 0.1436614 0.17820878 0.028014947
0000a0 a0 2c ac bc dc 06 c8 3c 3d 3a 32 3c c6 a5 4b be
       -0.021017373 0.024417333 0.010878143 -0.19887456
0000b0 d8 1b 7a be e1 d8 cb bc c3 cd 62 bd 3e ab 2a 3e
       -0.24424684 -0.02488369 -0.05537201 0.16666886
0000c0 e5 d7 f0 bc 26 74 4e 3e 2a 22 d6 be f6 63 cc bd
       -0.029399822 0.20161495 -0.4182294 -0.099800035
0000d0 3b 54 4b bd c1 15 0a be 34 cf 4e bd 8e 1c b6 3c
       -0.049640875 -0.13484861 -0.050490573 0.022230413
0000e0 db 85 c6 3d ab 04 a4 bd 41 87 e9 3d c1 44 10 3e
       0.096935 -0.08008703 0.11402751 0.14088728
0000f0 00 6a 75 bb 1e e3 64 3e b0 c0 07 bd d8 c6 c2 bd
       -0.0037447214 0.22352263 -0.033142745 -0.09510583
000100 92 f0 5e bd 34 30 de bd 2d 94 98 bd d6 c0 4d 3c
       -0.054428644 -0.10849038 -0.07450137 0.012558183
000110 4e d4 47 3e 94 46 c6 3d 5f 31 d8 bd e6 bf fb bd
       0.19514582 0.096814305 -0.10556292 -0.12292461
000120 3c 6e a7 bb 69 04 ae bd f3 f2 8e 3d 4f d4 12 be
       -0.0051095765 -0.08496935 0.06979933 -0.14338802
000130 1c f9 37 be 74 58 0c be 5a 62 b1 bd 5b 48 1e be
       -0.17966121 -0.13705617 -0.08661337 -0.15457289
000140 ae 88 5b bd 89 c9 b7 3d 21 cb a4 3e 74 73 ee bc
       -0.053597145 0.08973987 0.32186225 -0.029107787
000150 a6 11 82 bd 98 3f 1a be b6 61 e7 3c 58 51 95 3d
       -0.063510224 -0.15063322 0.028244834 0.07290906
000160 b0 c1 0a bd 41 35 7a be 4b 36 40 bd 8a d1 82 3c
       -0.03387612 -0.24434377 -0.046926778 0.015969057
000170 d4 b3 fb 3d 5d 2b 01 be d3 8a 4f be 07 8f 48 be
       0.12290159 -0.12614198 -0.20267801 -0.1958581
000180 ab 37 15 bd 26 e1 89 3d 9e bb 0a 3e f8 ad 1f be
       -0.036430042 0.06732397 0.13548133 -0.15593708
000190 77 fc 80 3d 9e 95 47 be 91 e1 1b 3d 12 a2 41 be
       0.06298154 -0.19490668 0.038056914 -0.18909481
0001a0 e0 cd 17 bc 52 d0 ec 3d 7f 6f 05 bd ef bb 14 bc
       -0.009265393 0.115631714 -0.032577034 -0.00907801
0001b0 5e 6f 5e 3d ae fb a5 bd 84 90 e9 3d 94 aa 21 3e
       0.054305427 -0.08104645 0.11404517 0.15787727
0001c0 ff f2 cd 3d 24 4c a4 3d 5b 8d 54 bd fa 89 32 3e
       0.100561135 0.08022335 -0.05189262 0.17435446
0001d0 be 17 01 bd 2c 33 dd bd 57 97 4f be a7 ad 6f bd
       -0.031516783 -0.10800776 -0.20272575 -0.058515217
0001e0 fe d9 30 be 36 a8 75 be 23 44 0d bd 01 e2 0b 3d
       -0.17270657 -0.23989949 -0.03448881 0.03415108
0001f0 6c 00 89 3e 02 bc 16 be 0a 67 85 3d b8 e2 82 3c
       0.26758134 -0.14720157 0.06513794 0.015977249
000200 91 91 60 bd 7f e7 b7 bd 5e 7f 1e be c6 11 a0 3d
       -0.054826323 -0.08979701 -0.15478274 0.0781589
000210 a1 ff 24 3e 5f 87 0b bd c4 ad e1 3d 0f 7a ac bd
       0.1611314 -0.034064647 0.11019471 -0.08421718
000220 00 08 bf bd 7b 9b 81 3d eb d6 dd bc a5 fc f9 bd
       -0.09327698 0.06328484 -0.02708002 -0.12206391
000230 35 c6 39 bd b4 c9 7e bd c2 25 09 3e 23 31 3d 3e
       -0.04535504 -0.062204078 0.1339331 0.18475775
000240 6c a6 90 bc 45 76 12 3e cd 94 0e bd 1e c2 36 be
       -0.017657481 0.14302929 -0.034809876 -0.17847487
000250 a5 0f 9c bd 9f 81 d5 3c 59 29 34 be 2c 56 ab bc
       -0.076201715 0.026062785 -0.17593898 -0.020915113
000260 57 0c ba bb 2a dd 5d 3e 4c 82 d0 3d 9f 10 31 be
       -0.0056777406 0.21666399 0.10181102 -0.17291497
000270 2b 16 53 be fc 5b 34 3d 8a d0 1f 3e 54 ca 8d be
       -0.20613925 0.044033036 0.15606895 -0.27693427
000280 17 5a 8d 3d 5e 94 13 be 0a 6e 85 3d 23 ef 7b 3d
       0.06901949 -0.14412066 0.06515129 0.061507355
000290 e8 70 cd 3b d9 55 33 be 59 cc 63 be 7c 71 f6 bd
       0.006269563 -0.17513217 -0.22245921 -0.12033364
0002a0 55 ea 9d 3d fe d5 9f bc 43 a4 da bd d7 fd 5c bc
       0.07710711 -0.01951122 -0.10675862 -0.0134882545
0002b0 49 3f 61 bc 25 c1 05 bd dc a7 4f be 64 c7 98 3d
       -0.0137479985 -0.0326549 -0.20278877 0.07459906
0002c0 84 f8 05 bd 9b 3b 2b 3e f2 dd 43 bd 60 46 a9 bd
       -0.032707706 0.16721956 -0.047819085 -0.08265376
0002d0 8c 4a 6f 3c b4 e7 29 bd eb 04 32 3e 25 aa 11 be
       0.014605176 -0.041480735 0.17384689 -0.14225061
0002e0 2b f4 56 bd f0 78 c5 bd 37 40 19 be d0 65 4b be
       -0.05247895 -0.096422076 -0.14965902 -0.19863057
0002f0 86 ee 44 bd 95 67 bb bd 34 40 b2 be e9 12 95 3e
       -0.048079036 -0.09150616 -0.34814608 0.2911599
000300 39 29 f6 3c 48 7e 4b bd 6f d6 43 be b6 a3 77 be
       0.030048953 -0.049680978 -0.19124769 -0.24183545
000310 da c4 13 bd db cf c7 3d 95 82 2d 3e b8 3a 45 3d
       -0.036076404 0.09756442 0.16944344 0.0481517
000320 99 ee f0 bd cc ec c1 bb b9 f9 d3 bd 65 53 4f 3e
       -0.11764259 -0.005918121 -0.10350365 0.20246656
000330 91 d8 02 3d e0 69 b7 3e 5e de 88 bd ec a9 63 3d
       0.031944815 0.35822964 -0.06683038 0.055581972
000340 20 81 3c be 71 42 f0 bd 2c 26 e1 bc 22 3e a4 bd
       -0.18408632 -0.11731423 -0.027484022 -0.080196634
000350 02 30 70 bc b7 3b d9 3d f0 e2 02 be 78 3a 34 bc
       -0.014659883 0.10607093 -0.12781882 -0.011000268
000360 45 45 96 3d 2e d4 51 3e 55 6f 69 3d e4 95 94 bd
       0.07337431 0.20491096 0.05699094 -0.07255152
000370 6a 75 5b 3e 48 db 10 3e 1b 63 08 be 27 3e 3e be
       0.21431509 0.14146149 -0.13319056 -0.18578397
000380 a8 b6 b6 3c 6f a6 67 3e 5f 47 66 be a0 43 52 bc
       0.022303894 0.22622083 -0.22488163 -0.012833506
000390 56 e8 f3 3d 65 32 17 3e 87 43 13 3d 1b bb df bd
       0.11909549 0.14765318 0.03595307 -0.109243594
0003a0 8e ea 2a 3d 7b f3 ae 3c a3 0d d8 bc cc dc 15 3e
       0.041727595 0.021356335 -0.02637369 0.14635009
0003b0 d2 3c 29 3d fd 31 0d be 97 13 2f be b2 cc 83 3d
       0.04131777 -0.137886 -0.17097317 0.06435527
0003c0 7f cd 23 3e a9 c2 09 bd 2f cd 53 bc 1e 40 83 be
       0.1599636 -0.033632908 -0.012927338 -0.25634855
0003d0 b1 a8 00 be 8c 01 d1 3d 0e 5c 02 3e 76 c2 b1 3d
       -0.1256435 0.10205373 0.12730429 0.086796686
0003e0 ce 44 f8 3d 25 f7 58 3e bd 96 90 bc 86 ec e5 bd
       0.121224985 0.21188028 -0.017650003 -0.11226754
0003f0 88 0a 52 3d 21 e8 dc bd d7 ef e0 3d 34 45 80 3d
       0.051279575 -0.107864626 0.10983246 0.062631994

resnet.layers.4.layers.4.weight f4 [8]
000000 9e 89 9d 3f 6c e2 87 3f a1 8e 8c 3f 68 ea 91 3f
       1.2307622 1.0615973 1.0981027 1.139966
000010 de b3 82 3f 7e 74 6b 3f 5c 6b 85 3f 69 62 86 3f
       1.0211141 0.9197463 1.0423388 1.0498782

resnet.layers.4.layers.4.bias f4 [8]
000000 9a 83 f5 bc 03 c0 f5 bb 5a 80 09 be 9e ad 29 be
       -0.02996998 -0.007499696 -0.13427868 -0.16570136
000010 91 4a f2 bd 29 05 38 bd 63 fe 3e bd c7 97 16 be
       -0.11830629 -0.044926796 -0.04662932 -0.14706336

resnet.layers.4.layers.4.running_mean f4 [8]
000000 14 af 17 be 72 86 2a be 2c 1c 4b be 8c b1 28 3e
       -0.14812881 -0.1665285 -0.19834965 0.16473979
000010 11 35 88 bd 44 a5 eb bd 64 ae 3f be 1a b3 6a be
       -0.066507466 -0.11506131 -0.18718868 -0.22919884

resnet.layers.4.layers.4.running_var f4 [8]
000000 7a 12 8b 3e 20 eb a3 3e 69 d6 7a 3e 8d 77 c2 3e
       0.27162534 0.32015324 0.24495853 0.37981835
000010 67 65 c1 3e aa 43 5d 3e d9 1a b6 3e ee e8 94 3e
       0.37772676 0.21607843 0.35567358 0.2908396

policy_layers.layers.0.weight f4 [16, 72]
000000 a6 6e de be f6 66 5f 3e a5 7e a8 3e d8 aa 80 be
       -0.43443793 0.2181662 0.32909122 -0.25130343
000010 45 71 27 3d d0 9e fa be 32 b6 6f 3e 10 13 e9 3d
       0.040879507 -0.4894929 0.23409346 0.11380589
000020 82 8c 8d 3d ed 0d da be d7 67 e9 3d 31 93 8a be
       0.06911565 -0.4258875 0.11396759 -0.27065423
000030 39 e8 0a bf 51 3b 0f bc 66 2a e5 bd 99 86 77 bd
       -0.54260594 -0.0087421695 -0.111897275 -0.060431097
000040 b3 91 ae be ad 13 8f bd b2 c4 0e 3f f6 f3 d8 3d
       -0.34095535 -0.06986175 0.55768883 0.10593407
000050 1c 65 9c 3d 2a 06 be 3e fc db cf 3d 2f 92 5e be
       0.076364726 0.37114078 0.101493806 -0.21735452
000060 fb 95 1a be b9 09 9b be 3e 80 56 be e6 4e 2b bd
       -0.15096276 -0.30280855 -0.20947358 -0.04182329
000070 9d 65 60 be 44 f8 8f 3c 12 85 29 3e 1e be 67 be
       -0.21913762 0.017574437 0.16554669 -0.22631118
000080 15 08 d7 be 0e 53 e0 3d 5b ed 2a be 38 ab 17 3c
       -0.41998354 0.109533414 -0.16692106 0.00925713
000090 d7 72 08 3f 03 93 8e bd 27 14 29 3d 4c 1c 7a bd
       0.5330023 -0.06961634 0.041278984 -0.061062142
0000a0 c4 4f 12 bf e2 74 57 3d 96 81 73 bd eb 69 64 3e
       -0.5715296 0.052601703 -0.059449755 0.2230603
0000b0 60 b2 e9 bc 71 60 1c 3d cf d1 b9 3e 07 15 2b 3d
       -0.028527439 0.03817791 0.36292884 0.0417681
0000c0 4f 30 f0 be 42 24 86 be 49 a0 f9 be 15 54 0b be
       -0.46911857 -0.26199538 -0.487551 -0.13606293
0000d0 22 c7 21 be 46 40 c9 3a bc 9a 1d 3f 63 5e 72 be
       -0.1579862 0.0015354238 0.6156423 -0.23668818
0000e0 95 00 e8 3e e9 14 8f be ac f7 71 be 0d 0c 88 3e
       0.45312944 -0.2794564 -0.23629636 0.26571694
0000f0 bf 15 95 be db 36 b3 3d b9 74 cd 3e 81 9e fb be
       -0.29118153 0.08750697 0.40128115 -0.49144366
000100 b2 94 0e 3f 44 c8 81 3d 61 2c e0 3d 92 7d fe bd
       0.5569564 0.06337026 0.109459646 -0.124262944
000110 23 96 2e bf 9f 32 85 3e b0 5e db be 95 d1 05 bf
       -0.6819784 0.26015183 -0.42845678 -0.5227292
000120 a4 3b 7b bd 98 11 22 3f b9 20 cb be f4 96 3c 3e
       -0.061336175 0.63308096 -0.39673403 0.18416959
000130 7c b2 27 3e 68 87 0c 3f 1f 69 ec be c3 77 06 3e
       0.1637668 0.54894114 -0.4617395 0.13131623
000140 db f1 f5 3d a6 fe 90 bd da 85 20 bf ea 1e 8d 3e
       0.12009021 -0.0707982 -0.6270424 0.27562648
000150 8d 29 f2 bb ac f2 cf bd e9 b2 5c 3e 75 ee 2f be
       -0.007390207 -0.10153708 0.21552624 -0.17180808
000160 ef 06 45 bf 2b 81 a4 3d dd c6 b6 3e 26 f0 27 3f
       -0.76963705 0.08032449 0.35698596 0.6560081
000170 21 4d 9b 3e 0d 4f 38 be 2c f0 92 be b9 96 91 3e
       0.30332282 -0.17998905 -0.28698862 0.28435305
000180 02 31 f8 be b2 9b 0e be 04 e7 d9 be 34 f0 74 be
       -0.4847489 -0.1392658 -0.42559063 -0.23919755
000190 31 1d 73 3e 14 85 80 bf 74 a9 bc be f8 f6 5d bf
       0.23741604 -1.0040612 -0.36848032 -0.8670497
0001a0 6b 58 91 3c dd 98 4e be 5f 47 8b be 7b bc 18 bf
       0.017742356 -0.201755 -0.2720289 -0.596626
0001b0 cb 76 b1 be 9f 8b b3 be 7d 17 33 3d 59 03 a6 be
       -0.34660944 -0.3506746 0.043723572 -0.3242443
0001c0 12 4d c6 3d 97 74 3b bd f8 70 a4 bd 0a 8d 0c bf
       0.09682669 -0.045765486 -0.080293596 -0.5490271
0001d0 39 3d 21 3e 41 46 c0 3e d3 ff 87 be a6 f8 ce 3e
       0.15746011 0.375536 -0.26562366 0.4042408
0001e0 19 2f cd bc 06 31 2a 3e 77 c9 11 3f 8b bd 08 be
       -0.025046872 0.16620263 0.56948036 -0.13353555
0001f0 1f 7e 1c 3d 80 af ab be 29 19 35 be 7a 1b 36 3e
       0.038206216 -0.33532333 -0.17685379 0.17783919
000200 19 03 4d 3e e2 ab 34 bf c9 33 44 be a7 98 9f be
       0.20020713 -0.7057477 -0.1916038 -0.31171152
000210 05 12 87 3e b1 c3 d8 be 62 e5 a2 be fc d5 81 3c
       0.26380935 -0.423368 -0.3181563 0.015849106
000220 31 ff 05 bf f3 ec 26 bf 5e 22 2d 3e 75 2f 92 be
       -0.52342516 -0.65205306 0.16907641 -0.28551832
000230 63 ae b9 be 50 e5 fa bd 09 d9 8f 3d e0 f4 7e 3e
       -0.3626586 -0.12250769 0.07023818 0.248981
000240 f0 d4 36 be f3 84 79 be 9d df 8b 3e 78 e0 57 3e
       -0.17854667 -0.24367122 0.2731904 0.21081722
000250 8a 1e 6f 3e e6 f8 93 3d 51 27 d9 3e 28 b0 1e 3e
       0.23351493 0.07225208 0.4241281 0.15496886
000260 4d 0f bc bc c2 b2 47 be b0 b6 04 3e 29 19 b8 3e
       -0.022956515 -0.19501784 0.12960315 0.35956696
000270 fc 3f a4 3e b3 85 66 3e a3 9f 8d 3e af 0f 90 bc
       0.32080066 0.2251194 0.27660856 -0.017585604
000280 53 62 79 3e 40 8a fe bc b3 71 77 be 71 be c3 3e
       0.24353914 -0.031071782 -0.24164467 0.38231233
000290 9a b4 2a be 51 9a e9 3d a4 97 ce bd 62 ea d7 bd
       -0.16670457 0.11406387 -0.10087517 -0.10542752
0002a0 7f 5b ea be 0d ae 1d 3e dc fc 06 3d 54 7b 8b 3e
       -0.4577293 0.15398426 0.03295599 0.2724253
0002b0 94 78 67 bc cd 77 a3 be 98 76 69 be 77 df 8c 3d
       -0.014127869 -0.31927338 -0.22799146 0.0687856
0002c0 a8 3c a4 3d 5b f2 9e be 39 90 bb be 95 6b de be
       0.08019382 -0.31044278 -0.3663347 -0.43441454
0002d0 76 c0 55 bf 16 f6 7d 3e 79 a4 16 be 40 e9 2b 3e
       -0.834968 0.24800906 -0.14711179 0.16788197
0002e0 f4 68 38 3e 97 c2 29 be 44 81 e3 3e 14 8b 90 3d
       0.18008786 -0.16578136 0.4443456 0.07057777
0002f0 3b c5 a8 bc 87 9a 49 be e1 e9 07 be ab ef 27 be
       -0.02060186 -0.19687854 -0.13272811 -0.1640002
000300 ce ba a1 3d fc 86 85 3e ba 94 ae bd 23 c2 98 3e
       0.07896958 0.26079547 -0.08524461 0.29835615
000310 40 88 30 3e 66 08 05 be 46 12 39 bd 4a a8 22 3e
       0.17239475 -0.12991485 -0.045183443 0.1588451
000320 5d c6 ac bd 4b 1a 3b 3f d8 ef 04 3e 98 3f 18 be
       -0.08436272 0.73086995 0.12982118 -0.14868009
000330 43 f1 3a 3d 99 9b a1 be f9 a0 59 3d 4c b7 28 bd
       0.04564024 -0.31564024 0.05313203 -0.04119043
000340 5e ce d6 bc 3d a5 25 bd 8d c3 9c 3e b5 77 b5 3d
       -0.02622145 -0.040440787 0.30617943 0.08860723
000350 3c 39 6a 3e cf 14 48 3e 0c 04 15 be 6f 22 57 3e
       0.22873396 0.19539188 -0.14552325 0.21009229
000360 a7 dc 62 bc d7 c5 86 bc 9e c9 01 bf 15 55 45 3d
       -0.013846553 -0.01645176 -0.5069827 0.048176844
000370 2d 92 81 be 9d 5c ea 3e b3 43 ca be a4 02 8a be
       -0.25306836 0.45773783 -0.39504775 -0.2695514
000380 86 16 d8 bd 9f a3 d9 be 8b ac 07 bf 65 c2 38 be
       -0.10551171 -0.42507645 -0.52997655 -0.18042906
000390 29 82 66 be c3 c3 00 3e 81 05 ce be 60 15 46 bd
       -0.2251059 0.12574677 -0.40238574 -0.04836023
0003a0 5c 6f 81 3e b5 53 ea bd be b8 2e be 19 e1 44 3f
       0.25280273 -0.11441747 -0.17062661 0.7690597
0003b0 5d 1a a9 be 29 5e 16 be 99 f3 74 3d 88 50 8f be
       -0.33027926 -0.14684357 0.059802625 -0.27991128
0003c0 6b 50 09 3e a4 3a 28 bd e3 50 46 be 2a 96 8b bd
       0.13409583 -0.04107155 -0.19366793 -0.06815751
0003d0 c8 be 74 be 5d a5 46 3e 2d 0b 52 be b9 be 1e 3e
       -0.23900902 0.19399019 -0.20512076 0.15502442
0003e0 93 4a ac 3d 47 67 16 be 4e b8 0f bf 8d ec 76 be
       0.084126614 -0.14687835 -0.561406 -0.24113674
0003f0 96 00 20 bf cb 1d 35 3e 3b ba 68 3e fe e3 47 be
       -0.62500894 0.17687146 0.22727291 -0.19520566

policy_layers.layers.0.bias f4 [16]
000000 f9 18 e5 bd 32 ab 72 be f6 f7 56 3e d3 a8 b1 3c
       -0.11186404 -0.23698118 0.20993027 0.021686947
000010 94 e3 15 3e a6 ad 86 bc 95 df be 3b 90 71 93 bd
       0.14637595 -0.016440224 0.005824993 -0.07199395
000020 17 b9 cb 3d 5f 2f 8d bd 74 d2 04 3e 0c 7a 90 3d
       0.099474125 -0.06893801 0.12970906 0.070545286
000030 b2 09 0d be 9c fd 92 3e d8 17 5a be 07 0a 44 bd
       -0.1377323 0.28709114 -0.21298158 -0.047861125
