RL/TicTacToe/alphazero_model.pth (torch_old, 6381 bytes, 11 tensors)

policy_layers.0.weight f4 [16, 10]
-0.19159718 -0.39893 0.32103825 0.42140213 0.34852362 0.32972673 -0.265183 -0.18060766
0.41767043 0.44362047 -0.21453837 0.40728036 0.77508765 -0.03742027 -0.15433599 -0.20808484
-0.73911667 -0.1009454 -0.1332507 -0.11363022 0.028522577 0.41829678 -0.57772434 -0.37340474
0.18053995 -0.8371482 -0.6198553 -0.02962601 -0.07842358 -0.3492286 -1.0028162 -0.6320145
-0.075879574 0.05808586 0.3733266 -0.5392473 0.32319045 -0.47922012 -0.43131903 -0.28743225
0.11177808 -0.47073314 -0.51324713 0.046791494 0.7311877 0.18994321 0.16464044 0.24710542
0.43715948 -0.4819864 -0.5324583 -0.029418707 0.39155725 -0.009100506 0.47865897 0.19394918
0.6782535 0.5169598 -0.10835735 0.14760643 0.7317931 0.006019533 0.112403385 0.25462443
0.528927 -1.0951431 0.05866552 -0.6920278 -0.46141085 0.53128195 0.4596141 0.19962658
-0.71653944 0.06809946 -0.051662777 -0.07057739 0.39258957 -0.13778569 -0.25655177 -0.6678388
0.3570893 -0.5249285 0.13072601 -1.0629827 -1.2289636 0.31613624 -0.87697005 -0.27479532
-0.3603888 -0.25158772 0.13091628 -0.21131621 0.28659004 0.4264735 0.43374977 -0.47195342
0.012584345 -0.58121836 0.26511967 0.038610823 -0.11634295 0.5757981 -1.4267931 0.19411807
-0.081372015 0.14988399 -0.5484201 -0.09932656 0.27499992 -0.47929505 -0.60558385 -0.64848495
-1.0403492 0.44149005 0.11033146 -0.28241938 0.4308045 -0.2766789 0.3386284 0.15696281
0.9427607 0.05465536 0.18369907 -0.011924139 -0.24852477 -0.69710964 0.022436094 0.9128234
0.7298615 0.8911914 -0.5934299 -0.37828934 0.1796297 1.7859342 -0.2667862 -0.09977595
0.07062802 -0.95933163 -0.5563946 -0.38621214 0.4862418 -0.99445 -0.11035331 0.07707253
-0.31603104 -0.5295446 0.37363347 -0.09690502 0.38006505 -0.58883864 -0.25748223 -0.84762317
-0.087173045 -0.65248907 -0.122903824 -0.7092336 -0.4011109 -0.036116496 0.9584841 -0.44172984
00000000: 0d32 44be 8e40 ccbe 205f a43e 05c2 d73e
00000010: b071 b23e f1d1 a83e 11c6 87be 37f1 38be
00000020: e6d8 d53e 3922 e33e f2af 5bbe 0d87 d03e
00000030: 256c 463f ff45 19bd 410a 1ebe 3114 55be
00000040: c036 3dbf 76bc cebd df72 08be f6b6 e8bd
00000050: 2ea8 e93c ff2a d63e bee5 13bf e82e bfbe
00000060: 77df 383e 584f 56bf d6ae 1ebf 3fb2 f2bc
00000070: 8b9c a0bd 17ce b2be 485c 80bf b4cb 21bf
00000080: c066 9bbd 70eb 6d3d aa24 bf3e 1c0c 0abf
00000090: 3879 a53e 575c f5be d9d5 dcbe 522a 93be
000000a0: e8eb e43d ef03 f1be 2a64 03bf 70a8 3f3d
000000b0: 1e2f 3b3f 7980 423e 8197 283e 3409 7d3e
000000c0: 5ed3 df3e ecc6 f6be 304f 08bf 80ff f0bc
000000d0: 317a c83e 4a1a 15bc ca12 f53e 9d9a 463e
000000e0: 05a2 2d3f 7a57 043f 75ea ddbd 2426 173e
000000f0: cb56 3b3f 813f c53b bf33 e63d 225e 823e
00000100: c367 073f a62d 8cbf 424b 703d bc28 31bf
00000110: 0b3e ecbe 1802 083f 8a52 eb3e e96a 4c3e
00000120: 216f 37bf bb77 8b3d 599c 53bd e18a 90bd
00000130: 8001 c93e b117 0dbe c15a 83be 7cf7 2abf
00000140: 69d4 b63e b761 06bf 0add 053e d10f 88bf
00000150: ae4e 9dbf 9cdc a13e 1c81 60bf f9b1 8cbe
00000160: e184 b8be 1bd0 80be eb0e 063e 4763 58be
00000170: eebb 923e bc5a da3e 7314 de3e e1a3 f1be
00000180: 922e 4e3c baca 14bf c4bd 873e 6226 1e3d
00000190: 3645 eebd 8167 133f 28a1 b6bf e3c6 463e
000001a0: 5fa6 a6bd 307b 193e 4265 0cbf b96b cbbd
000001b0: cacc 8c3e 2966 f5be 8b07 1bbf 1c03 26bf
000001c0: 2a2a 85bf fc0a e23e 76f5 e13d 4699 90be
000001d0: 6892 dc3e dba8 8dbe b460 ad3e dcba 203e
000001e0: c458 713f 4cde 5f3d 9c1b 3c3e 775d 43bc
000001f0: 477d 7ebe c775 32bf e6cb b73c cbae 693f
00000200: 34d8 3a3f 1f25 643f 06eb 17bf 24af c1be
00000210: d9f0 373e 7e99 e43f 3398 88be 5557 ccbd
00000220: 6ca5 903d c296 75bf e06f 0ebf 99bd c5be
00000230: aff4 f83e 4694 7ebf eb00 e2bd 34d8 9d3d
00000240: d2ce a1be 3c90 07bf e34c bf3e 2476 c6bd
00000250: e397 c23e 21be 16bf b6d4 83be d5fd 58bf
00000260: c887 b2bd 8609 27bf 00b5 fbbd 5590 35bf
00000270: 685e cdbe e4ee 13bd 375f 753f 6a2a e2be

policy_layers.0.bias f4 [16]
0.042679142 -0.0680075 0.15204528 0.04733594 0.035790585 -0.08891253 0.010709802 0.031372488
0.008530078 -0.039425995 -0.031489555 -0.09086905 0.15636294 0.03624149 -0.04335394 -0.20075235
00000000: 53d0 2e3d 8447 8bbd c2b1 1b3e 55e3 413d
00000010: 2699 123d c617 b6bd 2a78 2f3c 7080 003d
00000020: bec1 0b3c 277d 21bd 31fb 00bd 8d19 babd
00000030: 9b1d 203e f571 143d e793 31bd 0692 4dbe

policy_layers.2.weight f4 [16, 16]
0.038279954 -0.5572744 -0.5407569 0.5580318 -0.2617226 0.61932814 0.02042209 0.1017672
0.061495863 0.09839177 -0.4207807 -0.22910076 0.49977726 -0.15430024 0.28603488 0.08239754
0.22159447 -0.24566779 0.20759974 0.23347473 0.09953408 -0.1613983 -0.6219694 0.09469563
-0.4536169 0.29900923 0.46499866 -0.14848457 -0.41185153 -0.054815505 0.13698612 0.5020162
-0.03567036 -0.13746852 0.33405608 -0.508067 -0.5795041 0.17357871 0.2619266 -0.13115673
0.5059588 -0.5306048 0.23275548 0.21512869 -0.4653802 -0.21065134 -0.20636305 -0.37214115
-0.24003923 -0.17455056 0.14211571 0.54690576 -0.5808496 -0.40457162 0.50976855 0.4196186
0.21776232 -0.06119817 -0.024717297 -0.18902187 -0.25829816 0.13934039 -0.22915289 0.49660432
-0.1904209 -0.33534092 0.076597296 0.5839502 0.089734495 0.9471397 -0.6667766 0.0641486
-0.033005334 -0.21659602 0.4060299 0.15196067 -0.53525317 -0.033068497 -0.3993164 0.4300224
-0.20954324 0.34648925 -0.07728583 0.62257147 0.2630215 0.35347387 -0.47146076 0.42016068
0.42140013 -0.13873625 -0.07407674 0.13830505 0.093610026 -0.073871315 0.029908085 -0.06548516
0.50516677 0.26129457 0.17446607 0.17831458 -0.3323642 0.1155367 -0.17813832 -0.21337385
-0.7505885 -0.78712064 0.77712715 0.47009265 0.14230062 -0.0832584 0.5035881 -0.10802852
-0.23996545 0.15489428 -0.34464926 0.22936715 -0.37165305 0.113054916 0.14471617 0.19092263
0.63482225 0.06937047 0.7499788 0.4174327 0.63810325 0.04483889 0.29706603 -0.2554714
-0.2666965 0.16436577 -0.51806563 0.16951193 0.11520806 0.24466401 -0.24845384 -0.21320423
0.102280594 -0.13028528 0.19247042 0.13264255 0.082883 0.4229999 -0.047561828 0.33636886
-0.17356145 -0.25792864 0.15491135 -0.23006769 -0.040348824 0.17803143 -0.55906665 -0.122037165
0.40871996 0.68641585 -0.53314865 0.062481623 -0.052963343 0.18667826 -0.002009465 -0.008494556
0.7386507 -0.053182222 -0.9155044 0.06843457 -0.12775382 -0.096745536 0.5310371 0.14214158
-0.27163684 0.12638392 0.5011452 0.58805317 -0.45230228 -0.4167606 -0.7150518 -0.106382266
0.1344851 -0.038253874 -0.24839169 0.08015887 0.83392644 -0.2834935 0.44627708 0.16462372
0.025138833 -0.8188162 0.5471989 0.086187355 0.2992373 0.058390256 -0.4374404 -0.34345567
0.09174367 -0.11362348 0.49298194 0.42203188 0.23672532 0.13651513 0.3714994 0.25312406
0.08002788 0.04459363 -0.37218058 0.3650356 -0.24736537 -0.21586701 -0.35719478 -0.099745095
-0.40071777 -0.032466628 0.48659194 -0.5187933 0.20209391 0.22341532 -0.016920166 0.20173867
0.27515796 0.3538945 -0.02144985 0.49020156 -0.023527974 -0.2740664 0.20220807 -0.42637125
0.10653521 0.50253147 0.31322637 -0.038024727 0.20100307 -0.45040426 -0.47917974 0.26994336
-0.93011993 -0.54829764 0.10287771 -0.31657088 -0.43552637 -0.14001758 0.32849213 0.38219655
0.19213703 0.28791094 0.15014139 0.3888076 -0.34812444 -0.5301631 0.5699243 -0.09597057
0.10556849 0.26410642 -0.30164042 0.23821387 -0.31588927 0.40477586 0.31164405 -0.18588558
00000000: 71cb 1c3d 89a9 0ebf 0b6f 0abf 2cdb 0e3f
00000010: 8100 86be 4a8c 1e3f 3a4c a73c 526b d03d
00000020: 16e3 7b3d a081 c93d 9170 d7be 6499 6abe
00000030: cee2 ff3e e200 1ebe 2a73 923e 0bc0 a83d
00000040: a9e9 623e 5690 7bbe 0795 543e 0014 6f3e
00000050: 86d8 cb3d 9945 25be 6339 1fbf c8ef c13d
00000060: 7940 e8be bd17 993e 4e14 ee3e 570c 18be
00000070: 34de d2be 3986 60bd 1746 0c3e 2284 003f
00000080: 151b 12bd 8cc4 0cbe 6609 ab3e ae10 02bf
00000090: 615a 14bf 9ebe 313e 3e1b 863e f34d 06be
000000a0: 8486 013f b7d5 07bf 7457 6e3e b24a 5c3e
000000b0: 5046 eebe fcb4 57be d650 53be 4989 bebe
000000c0: d8cc 75be 62bd 32be c886 113e 0402 0c3f
000000d0: 8fb2 14bf 0324 cfbe 3180 023f 40d8 d63e
000000e0: 16fd 5e3e efaa 7abd ee7b cabc f38e 41be
000000f0: a83f 84be 3faf 0e3e 0ea7 6abe ec42 fe3e
00000100: b2fd 42be ceb1 abbe 0bdf 9c3d c37d 153f
00000110: b8c6 b73d bf77 723f dfb1 2abf 5760 833d
00000120: 9a30 07bd 59cb 5dbe 27e3 cf3e 949b 1b3e
00000130: 5a06 09bf d572 07bd 3373 ccbe e52b dc3e
00000140: 8192 56be 0a67 b13e 0948 9ebd d860 1f3f
00000150: c1aa 863e 87fa b43e 4e63 f1be 4d1f d73e
00000160: c2c1 d73e e010 0ebe 8cb5 97bd d79f 0d3e
00000170: 9db6 bf3d d849 97bd cd01 f53c 151d 86bd
00000180: 9c52 013f 67c8 853e 3ca7 323e 1998 363e
00000190: a42b aabe 819e ec3d e469 36be ad7e 5abe
000001a0: 9126 40bf bd80 49bf cef1 463f fcaf f03e
000001b0: 41b7 113e 6183 aabd 26eb 003f 0f3e ddbd
000001c0: 81b9 75be 9b9c 1e3e de75 b0be 39df 6a3e
000001d0: 4f49 bebe 5689 e73d 7a30 143e 3981 433e
000001e0: b683 223f 1b12 8e3d 9cfe 3f3f bdb9 d53e
000001f0: bc5a 233f fca8 373d 0a19 983e 26cd 82be
00000200: 728c 88be 804f 283e f39f 04bf 8994 2d3e
00000210: 34f2 eb3d 3489 7a3e af6a 7ebe 3652 5abe
00000220: 7d78 d13d 8169 05be f716 453e 73d3 073e
00000230: 90be a93d 7193 d83e 31d0 42bd 8a38 ac3e
00000240: 18ba 31be 390f 84be 15a1 1e3e dd96 6bbe
00000250: cf44 25bd df4d 363e fe1e 0fbf 9fee f9bd
00000260: be43 d13e f3b8 2f3f 6e7c 08bf bbec 7f3d
00000270: 17f0 58bd 9628 3f3e 3ab1 03bb c02c 0bbc
00000280: 3618 3d3f 9ad5 59bd 7f5e 6abf 6d27 8c3d
00000290: e6d1 02be 8622 c6bd 0cf2 073f 908d 113e
000002a0: fc13 8bbe c96a 013e 0d4b 003f a78a 163f
000002b0: 2a94 e7be a561 d5be a20d 37bf f2de d9bd
000002c0: 76b6 093e 18b0 1cbd 645a 7ebe 552a a43d
000002d0: 347c 553f 0f26 91be 6e7e e43e 1f93 283e
000002e0: f4ef cd3c f09d 51bf 3a15 0c3f ff82 b03d
000002f0: a235 993e 9f2a 6f3d 30f8 dfbe 6cd9 afbe
00000300: 1be4 bb3d 6db3 e8bd 2168 fc3e 9014 d83e
00000310: 1f68 723e 9fca 0b3e 2b35 be3e 7a99 813e
00000320: a8e5 a33d cfa7 363d 748e bebe f2e5 ba3e
00000330: 594d 7dbe 3e0c 5dbe 3ce2 b6be 2847 ccbd
00000340: e12a cdbe bafb 04bd 9422 f93e a3cf 04bf
00000350: b5f1 4e3e fcc6 643e 299c 8abc 9594 4e3e
00000360: 81e1 8c3e a931 b53e 99b7 afbc b3fb fa3e
00000370: bdbd c0bc 6e52 8cbe a20f 4f3e 554d dabe
00000380: 222f da3d e7a5 003f 355f a03e d1bf 1bbd
00000390: c0d3 4d3e 639b e6be 0c57 f5be 0436 8a3e
000003a0: 571c 6ebf 3c5d 0cbf 8cb1 d23d 9415 a2be
000003b0: 50fd debe c560 0fbe 1f30 a83e 44af c33e
000003c0: 92bf 443e 1069 933e aabe 193e ca11 c73e
000003d0: 5e3d b2be c5b8 07bf 8fe6 113f 388c c4bd
000003e0: 4b34 d83d f538 873e 9d70 9abe 56ee 733e
000003f0: 3dbc a1be c83e cf3e cf8f 9f3e ca58 3ebe

policy_layers.2.bias f4 [16]
0.109672196 -0.032715775 0.025383836 -0.050890993 -0.061237715 0.11849849 0.05218001 0.016567837
-0.12961394 -0.032844625 -0.08717429 0.07732244 0.0017106943 0.049229525 0.06498694 0.12257587
00000000: d19b e03d fa00 06bd c3f1 cf3c 1373 50bd
00000010: 66d4 7abd 56af f23d b5ba 553d 46b9 873c
00000020: 84b9 04be 1688 06bd 6f88 b2bd 3a5b 9e3d
00000030: 6039 e03a e6a4 493d df17 853d 0f09 fb3d

policy_layers.4.weight f4 [9, 16]
-0.06030888 0.35257718 -0.81367 -0.079188086 -0.0031479916 -0.36031705 -0.16767928 -0.536792
-0.687443 -0.0057059787 -0.41288793 -0.20454036 0.53824085 0.34015942 0.6995587 -0.22856462
-0.32794642 -0.30407223 0.029902216 -0.15042251 0.51243687 -0.16350642 -0.20067452 -0.14851817
0.111892834 -0.3603173 0.61857903 -0.0010809586 -0.088765614 0.09955699 -0.20921895 0.08751014
0.24185854 -0.3140569 -0.081862204 0.15823968 0.031261656 0.5886968 -0.4426212 -0.2819224
0.009233387 0.044511147 -0.35383862 -0.18870783 0.86304677 -0.2929147 -0.2857206 -0.28955126
-0.180138 -0.3961067 -0.38064587 -0.2682937 0.13243592 0.36474872 -0.5296272 0.016518677
-0.35633928 0.06674944 0.36260018 0.0664562 0.19422856 0.34666806 0.07530158 -0.54450154
0.097490154 -0.32127413 0.110050105 -0.2705321 -0.099822186 -0.74153745 0.043491505 -0.06479255
-0.09127197 -0.38942245 -0.040763535 -0.012771993 -0.31225488 0.2008306 -0.55386573 -0.34069416
-0.13885693 -0.2123468 0.17787902 -0.55119866 0.21586223 0.24489145 0.0059375805 -0.36116764
-0.037107054 -0.6393252 0.107701175 -0.28441542 0.5853109 0.017699549 0.031229628 -0.96491677
0.45399985 0.17282154 0.30154535 0.562492 0.15805009 -0.5375962 -0.14338987 -0.38205448
-0.06336902 -0.43080992 0.43057665 -0.39897048 0.135179 -0.13122787 0.022173058 -0.12045089
-0.11151378 0.20768328 -0.034720838 -0.24283981 0.05741621 0.26742256 0.3553124 -0.064612344
0.2866789 -0.45227724 -0.34036857 -0.4874533 -0.17859575 0.071693465 -0.27812845 -0.03859161
-0.11166284 -0.19153556 -0.22549853 -0.4461047 0.037834257 -0.17742056 -0.088685945 -0.06091906
-0.45020494 -0.28288382 0.35181764 0.15167202 -0.35441238 0.83185416 -0.50616205 -0.11343912
00000000: 7206 77bd ff84 b43e ad4c 50bf 5d2d a2bd
00000010: 894e 4ebb 7a7b b8be 1eb4 2bbe 336b 09bf
00000020: 44fc 2fbf 38f9 babb 0c66 d3be 0773 51be
00000030: 27ca 093f 6029 ae3e 4716 333f d80c 6abe
00000040: 98e8 a7be 5baf 9bbe 7ef5 f43c 5c08 1abe
00000050: 102f 033f 3a6e 27be 9f7d 4dbe 2615 18be
00000060: 1228 e53d 827b b8be 325b 1e3f f4ae 8dba
00000070: bfca b5bd 89e4 cb3d 7e3d 56be 8438 b33d
00000080: c4a9 773e 11cc a0be 5fa7 a7bd 9509 223e
00000090: 390c 003d d5b4 163f 3f9f e2be 2258 90be
000000a0: a247 173c 5251 363d 562a b5be a03c 41be
000000b0: a2f0 5c3f eaf8 95be f849 92be 1040 94be
000000c0: 1976 38be 7fce cabe 04e4 c2be cb5d 89be
000000d0: 489d 073e 58c0 ba3e a695 07bf 2d52 873c
000000e0: 1a72 b6be eeb3 883d bba6 b93e 301a 883d
000000f0: dae3 463e 7a7e b13e b737 9a3d 7464 0bbf
00000100: eba8 c73d 0b7e a4be f361 e13d 2f83 8abe
00000110: 936f ccbd 66d5 3dbf 2624 323d f5b1 84bd
00000120: ccec babd 6162 c7be aaf7 26bd 9f41 51bc
00000130: dfdf 9fbe 89a6 4d3e 25ca 0dbf 776f aebe
00000140: 8330 0ebe 7171 59be eb25 363e 5b1b 0dbf
00000150: fd0a 5d3e d3c4 7a3e 0990 c23b f7ea b8be
00000160: 91fd 17bd d1aa 23bf 6f92 dc3d e69e 91be
00000170: efd6 153f a5fe 903c 47d5 ff3c c904 77bf
00000180: ab72 e83e 21f8 303e 2764 9a3e 7aff 0f3f
00000190: e2d7 213e e89f 09bf cbd4 12be a59c c3be
000001a0: 9ec7 81bd 1e93 dcbe 8b74 dc3e dc45 ccbe
000001b0: 5d6c 0a3e 9960 06be 46a4 b53c f5ae f6bd
000001c0: 5661 e4bd edaa 543e 7037 0ebd 00ab 78be
000001d0: 432d 6b3d 9ceb 883e 82eb b53e 7a53 84bd
000001e0: 94c7 923e e290 e7be ca44 aebe 7b93 f9be
000001f0: cee1 36be 06d4 923d da66 8ebe 3c12 1ebd
00000200: 7daf e4bd e621 44be 16e9 66be d667 e4be
00000210: 18f8 1a3d bcad 35be faa0 b5bd 4486 79bd
00000220: 4381 e6be 26d6 90be 7121 b43e e94f 1b3e
00000230: 8a75 b5be 65f4 543f d693 01bf c552 e8bd

policy_layers.4.bias f4 [9]
0.063872136 -0.15266782 -0.050950967 -0.025350004 0.10617953 0.07482175 -0.04285366 -0.103269614
0.17785911
00000000: 65cf 823d f454 1cbe f6b1 50bd d0aa cfbc
00000010: a774 d93d 253c 993d 5287 2fbd 057f d3bd
00000020: b320 363e

value_layers.0.weight f4 [16, 10]
-0.22213724 -1.0491601 -0.10295117 -0.29548106 1.0554004 0.16066962 0.31081405 -0.9592672
-1.229501 0.073316656 -0.19141456 -0.28518602 0.31408128 0.71242374 0.081446856 0.68262875
0.42412245 -0.34022167 -0.09603493 -0.32373452 0.5697814 -0.19148971 -0.351836 -0.5042399
-0.5676076 -0.16587445 0.5281494 0.5945139 -0.052690547 -0.81027037 -0.032592572 0.16694604
0.55112016 -0.6869129 -0.16095263 0.35206068 -0.11289998 -0.35267705 -0.5749954 0.011572021
1.0209776 -0.079756774 -0.38533336 0.18572736 0.5201054 0.38132986 0.2057715 -0.21438408
0.23391186 -0.5191006 0.038015183 0.20982651 -0.095382705 0.2845496 -0.41162002 0.4573351
-1.0414104 0.9864007 0.66964066 1.2072634 0.15600067 0.8337596 -0.85073227 -0.4841084
-0.8500261 0.47770408 -0.06433894 0.54044545 -0.204874 0.26253244 -0.5228412 0.23354094
-0.9735623 0.16082136 0.23399232 -0.031829614 -0.88911676 -0.45013002 -0.10955093 -0.7393323
0.53249717 0.030165266 0.042401016 -1.0853051 0.038872972 0.012756559 -0.047821674 -0.26488265
0.261853 -0.4111368 0.01226467 0.48650068 0.62889147 -0.03223891 0.037993316 -0.43132573
0.58663404 0.55565685 0.015043762 0.2790269 -0.22182384 -0.2689198 0.41681024 1.035207
0.05999564 0.005942882 0.42032793 -0.4163838 0.002459136 0.29284692 -0.08869582 -0.14578076
-0.572418 0.0055932277 -0.2542341 0.19842385 -0.29810786 -0.19019787 0.85113585 0.5580493
-0.386714 0.003500411 0.65691763 0.09543278 -0.8447497 -0.3715273 0.2079086 0.24572441
0.26923904 -1.0140169 0.796922 0.05033288 0.3641544 0.40827453 -0.26283425 0.68129474
0.008016941 0.43982673 -0.23561884 -0.34079826 0.08655468 -0.4171768 -0.12843873 0.081849076
0.7625791 -0.05394421 0.13524176 0.73143417 -1.1518526 0.49569443 0.14061987 0.16989408
0.02597184 -0.33882073 -0.030713057 0.45411974 -0.94459087 0.20124249 0.109783664 -0.46231818
00000000: f277 63be e14a 86bf 10d8 d2bd 4b49 97be
00000010: 5c17 873f 9486 243e 0523 9f3e 8992 75bf
00000020: 4a60 9dbf 0b27 963d 2e02 44be e703 92be
00000030: 43cf a03e 6761 363f 9ccd a63d c2c0 2e3f
00000040: 9426 d93e 8931 aebe f6ad c4bd 88c0 a5be
00000050: 32dd 113f e115 44be d923 b4be de15 01bf
00000060: bb4e 11bf feda 29be cd34 073f 1032 183f
00000070: 0bd2 57bd e16d 4fbf ca7f 05bd e7f3 2a3e
00000080: 3616 0d3f 86d9 2fbf c4d0 24be 4c41 b43e
00000090: 1b38 e7bd 1692 b4be e632 13bf 9398 3d3c
000000a0: 65af 823f 8557 a3bd 6a4a c5be 502f 3e3e
000000b0: a125 053f ab3d c33e c4b5 523e 8087 5bbe
000000c0: 9786 6f3e c7e3 04bf cfb5 1b3d c3dc 563e
000000d0: 0258 c3bd 7cb0 913e dcbf d2be d427 ea3e
000000e0: f04c 85bf c284 7c3f 926d 2b3f 9b87 9a3f
000000f0: a4be 1f3e 4571 553f 97c9 59bf 0edd f7be
00000100: 4f9b 59bf a195 f43e 22c4 83bd a25a 0a3f
00000110: 7dca 51be a76a 863e ecd8 05bf 5b25 6f3e
00000120: 613b 79bf 5bae 243e af9b 6f3e c55f 02bd
00000130: 289d 63bf 7177 e6be 3d5c e0bd e244 3dbf
00000140: bc51 083f 261d f73c b0ac 2d3d 47eb 8abf
00000150: 4439 1f3d e300 513c a9e0 43bd b39e 87be
00000160: 9911 863e 8680 d2be c1f1 483c 9e16 f93e
00000170: 08ff 203f f30c 04bd e19e 1b3d bad6 dcbe
00000180: a62d 163f 873f 0e3f 1c7a 763c 9ddc 8e3e
00000190: ca25 63be dbaf 89be 2768 d53e aa81 843f
000001a0: fdbd 753d 82bc c23b 3935 d73e 4230 d5be
000001b0: 7529 213b 08f0 953e 27a6 b5bd 8d47 15be
000001c0: fc89 12bf 6547 b73b f92a 82be 9f2f 4b3e
000001d0: 98a1 98be 3bc3 42be 0ae4 593f 52dc 0e3f
000001e0: 61ff c5be 2767 653b c12b 283f 4372 c33d
000001f0: 8441 58bf d438 bebe fee5 543e 2e9f 7b3e
00000200: b3d9 893e 4ecb 81bf 1503 4c3f da29 4e3d
00000210: 7272 ba3e 5c09 d13e 3692 86be 5569 2e3f
00000220: 7d59 033c f830 e13e 1146 71be 1c7d aebe
00000230: 9443 b13d 3398 d5be 7185 03be 7da0 a73d
00000240: 6238 433f 9bf4 5cbd d17c 0a3e 453f 3b3f
00000250: e86f 93bf a9cb fd3e a8fe 0f3e b7f8 2d3e
00000260: e5c2 d43c e979 adbe f399 fbbc 6282 e83e
00000270: b5d0 71bf 8312 4e3e 42d6 e03d f8b4 ecbe

value_layers.0.bias f4 [16]
0.08259802 -0.019439997 0.123804934 -0.010499342 -0.008371696 -0.048471786 -0.11749664 0.045173943
-0.027971366 0.043481078 -0.055625245 0.11317874 -0.011891997 0.10844237 -0.0002766397 -0.08819535
00000000: 2729 a93d a140 9fbc 718d fd3d 6f05 2cbc
00000010: 7029 09bc 5a8a 46bd 14a2 f0bd 5008 393d
00000020: 3524 e5bc 3719 323d 4cd7 63bd 41ca e73d
00000030: a7d6 42bc 0917 de3d f409 91b9 c39f b4bd

value_layers.2.weight f4 [16, 16]
0.033940054 -0.6707736 -0.08652593 0.0004821414 -0.54504174 -0.025576394 -0.083176225 0.025641248
0.15576228 -0.29253954 -0.1470894 0.26464152 -0.47585437 -0.4168134 -0.022211805 -0.47284716
0.5790475 -0.29633713 0.09382529 -0.44523945 -0.021174127 -0.24161522 -1.3053775 -0.55126005
0.52864534 -0.73116255 -0.39711216 0.28554612 0.08264751 0.59264594 0.7389844 0.2590416
-0.15687208 0.23940668 -0.04248067 -0.10218021 0.6049302 0.41457373 0.068759054 -0.146024
0.1549543 0.35719588 -0.31242982 -0.5307726 0.010260513 -0.17295323 0.07669279 -0.4087041
0.722856 0.14257447 -0.3986869 0.2821724 0.3012556 0.6549095 -0.06097124 -0.011397293
0.30244783 -0.26873758 0.09685139 0.26846132 -0.4458558 0.45081273 0.35662407 -0.5227072
-0.8520716 -0.51563233 0.0051519712 -0.36836958 0.22753054 -0.1602123 0.061099675 0.07908252
0.42077878 -0.3973853 -0.109871 0.0684814 -0.3898987 -0.6899388 -0.14019053 -0.19934215
0.4812379 0.77444416 -0.17384678 -0.1466933 0.05485312 0.04205837 -0.6398572 -0.2730517
-0.20199677 -0.18802276 -0.02539206 -0.5044637 -0.54224396 0.4680061 -0.0024386377 -0.10814662
0.120448284 0.69966084 -0.19240344 -0.22232349 -0.2261656 -0.0012621549 0.047079034 0.45056304
0.36560592 0.14610341 0.18346578 -0.09732779 0.58063006 0.32786673 0.41961637 0.04234652
-0.10105841 0.27090997 -0.10250688 -0.14715907 0.66991156 -0.49866357 0.06457168 -0.02716898
-0.0542727 0.07876021 -0.06603594 0.16979395 -0.51050454 -0.5186942 0.10961379 0.15896495
0.17386635 0.7330088 -0.4722209 0.18962222 0.15355009 -0.11763511 -0.034847777 0.14589162
0.0049178777 0.5626959 -0.08595715 0.30625543 -0.20799762 0.15754803 -0.044577077 -0.76573074
-0.3414923 0.040269952 -0.5614302 -0.5190043 0.37603936 -0.38915697 -0.5906829 -0.22291371
0.33046865 -0.46628562 -0.22381388 -0.09810754 0.4417621 -0.09694224 0.056855172 0.5266002
-0.8372089 0.28758496 -0.049263634 0.11033737 0.1877014 -0.025443936 -0.09995601 -0.0055380524
-0.5536402 0.28418896 0.14613497 -0.5712635 0.06485007 -0.5921115 -0.03147624 -0.29290894
-0.175686 0.45614794 -0.22406043 0.196711 -0.08944048 0.36957154 0.02227276 -0.33778724
0.115450986 0.58036417 -0.0803873 -0.45343626 -0.059761684 -0.36105672 0.7752203 0.6198295
0.55688626 1.2458001 0.43632102 -0.13785322 0.26864928 -0.49542227 0.035328683 -0.04092507
0.43610927 0.48685265 -0.23197232 -0.14950305 -0.16108052 -0.52255833 -0.15029992 0.19310075
-0.3188759 0.081842884 -0.54621303 -0.09292834 -0.250215 -0.24655999 -0.046051387 0.2867326
0.010267602 -0.23034917 -0.11878024 0.19620547 0.16190553 0.31176266 0.1427399 0.34344444
-0.4836824 0.37384653 0.11028664 -0.09036067 0.09881766 -0.09372463 -0.26355186 0.13422967
-0.62908286 0.19315858 0.03104394 0.063447475 0.06228337 0.13925119 -0.23080456 0.4046924
-0.1431305 0.32829118 -0.68600595 -0.40896404 0.0673538 0.3043313 -0.19552478 -0.025722845
0.35157815 0.1082516 -0.19904922 0.075746164 -0.74304545 -0.43099785 -0.016529344 0.13974063
00000000: ba04 0b3d d2b7 2bbf 8234 b1bd ecc7 fc39
00000010: db87 0bbf 9685 d1bc 4c58 aabd 980d d23c
00000020: 2680 1f3e bec7 95be 9b9e 16be 187f 873e
00000030: 2fa3 f3be 9168 d5be 88f5 b5bc 0619 f2be
00000040: 753c 143f 80b9 97be 7927 c03d 6df6 e3be
00000050: 5d75 adbc fb69 77be 9c16 a7bf 611f 0dbf
00000060: 4d55 073f 782d 3bbf 4952 cbbe 1a33 923e
00000070: 1943 a93d a5b7 173f 152e 3d3f 1aa1 843e
00000080: 13a3 20be 0627 753e 3600 2ebd dc43 d1bd
00000090: b5dc 1a3f 0243 d43e 8cd1 8c3d 5187 15be
000000a0: 57ac 1e3e 61e2 b63e cdf6 9fbe b7e0 07bf
000000b0: b61b 283c a71a 31be 1c11 9d3d aa41 d1be
000000c0: 170d 393f 0bff 113e b020 ccbe e778 903e
000000d0: 2d3e 9a3e 26a8 273f fbbc 79bd b6bb 3abc
000000e0: 71da 9a3e f997 89be 065a c63d c373 893e
000000f0: 3647 e4be edd0 e63e 6e97 b63e 24d0 05bf
00000100: 5d21 5abf 7b00 04bf ded1 a83b f09a bcbe
00000110: c4fd 683e b10e 24be a743 7a3d 04f6 a13d
00000120: 5170 d73e 1676 cbbe 0c04 e1bd fa3f 8c3d
00000130: cda0 c7be d49f 30bf 1b8e 0fbe 5920 4cbe
00000140: d064 f63e f941 463f e404 32be c536 16be
00000150: aaad 603d 6645 2c3d aecd 23bf 6fcd 8bbe
00000160: 3ed8 4ebe 0a89 40be 0203 d0bc 8824 01bf
00000170: 80d0 0abf 7f9e ef3e 8dd1 1fbb fa7b ddbd
00000180: 97ad f63d f91c 333f 6805 45be c5a8 63be
00000190: f497 67be e46e a5ba f2d5 403d 33b0 e63e
000001a0: b330 bb3e 229c 153e 74de 3b3e cb53 c7bd
000001b0: 2ca4 143f 26de a73e f5d7 d63e 8b73 2d3d
000001c0: b6f7 cebd b6b4 8a3e 21ef d1bd deb0 16be
000001d0: 537f 2b3f d550 ffbe 283e 843d 7b91 debc
000001e0: 0d4d 5ebd 084d a13d da3d 87bd 77de 2d3e
000001f0: 6db0 02bf 25c9 04bf 327d e03d b5c7 223e
00000200: 050a 323e 77a6 3b3f f0c6 f1be 542c 423e
00000210: 3c3c 1d3e adea f0bd 8bbc 0ebd 9d64 153e
00000220: 2626 a13b d70c 103f 4d0a b0bd 83cd 9c3e
00000230: 54fd 54be 4554 213e 7496 36bd ee06 44bf
00000240: 14d8 aebe 1bf2 243d e4b9 0fbf 77dd 04bf
00000250: 3b88 c03e 953f c7be ff36 17bf 7e43 64be
00000260: 3033 a93e fdbc eebe 772f 65be 9bec c8bd
00000270: a42e e23e a789 c6bd f8e0 683d 45cf 063f
00000280: 5353 56bf 563e 933e aac8 49bd 8ff8 e13d
00000290: cc34 403e cd6f d0bc bdb5 ccbd 8d78 b5bb
000002a0: 5dbb 0dbf 3781 913e 68a4 153e 533e 12bf
000002b0: 1dd0 843d 9f94 17bf 3bed 00bd 29f8 95be
000002c0: 08e7 33be 398c e93e 1970 65be 9c6e 493e
000002d0: 922c b7bd 7b38 bd3e 5d75 b63c 73f2 acbe
000002e0: 9171 ec3d bf92 143f 19a2 a4bd cc28 e8be
000002f0: abc8 74bd 6ddc b8be d674 463f 25ad 1e3f
00000300: 1990 0e3f 6176 9f3f 7865 df3e 6529 0dbe
00000310: 668c 893e fda7 fdbe cfb4 103d 0ca1 27bd
00000320: b749 df3e c044 f93e 278a 6dbe 5417 19be
00000330: 4bf2 24be 62c6 05bf 39e8 19be 34bc 453e
00000340: b443 a3be 3e9d a73d 9ed4 0bbf 3751 bebd
00000350: 2e1c 80be 397a 7cbe 61a0 3cbd 9ece 923e
00000360: 7239 283c a7e0 6bbe 0e43 f3bd 16ea 483e
00000370: 90ca 253e 5b9f 9f3e 692a 123e f3d7 af3e
00000380: 38a5 f7be d068 bf3e f6dd e13d 040f b9bd
00000390: ea60 ca3d b3f2 bfbd 45f0 86be 8173 093e
000003a0: 930b 21bf 5dcb 453e dc4f fe3c c0f0 813d
000003b0: d91c 7f3d dd97 0e3e 0858 6cbe d833 cf3e
000003c0: cd90 12be c815 a83e 169e 2fbf bc63 d1be
000003d0: caf0 893d 50d1 9b3e a637 48be b7b8 d2bc
000003e0: 0d02 b43e 04b3 dd3d 8fd3 4bbe ce20 9b3d
000003f0: 3a38 3ebf c0ab dcbe 8c68 87bc 2b18 0f3e

value_layers.2.bias f4 [16]
0.09459563 0.13586898 0.032617625 0.07753137 0.086451545 -0.017855315 0.07431883 -0.0340334
0.038125794 -0.08830543 -0.08946459 -0.05407188 0.06416009 0.11379377 -0.021551738 -0.008968678
00000000: 5bbb c13d 3d21 0b3e 0f9a 053d c4c8 9e3d
00000010: 820d b13d 4f45 92bc 7934 983d 9b66 0bbd
00000020: cb29 1c3d 7ad9 b4bd 3639 b7bd 7a7a 5dbd
00000030: 5e66 833d b50c e93d 458d b0bc 5df1 12bc

value_layers.4.weight f4 [1, 16]
-0.29889974 -0.12089924 -0.2949394 -0.01429649 -0.11130686 -0.17695889 -0.2673477 0.39789137
0.7328106 0.34157386 0.1299156 0.54888064 -0.076348886 0.19314793 -0.19642092 0.27646744
00000000: 6309 99be 059a f7bd 4c02 97be d33b 6abc
00000010: daf4 e3bd b634 35be cce1 88be 6bb8 cb3e
00000020: 7a99 3b3f c5e2 ae3e 9808 053e 7183 0c3f
00000030: ce5c 9cbd 92c8 453e 9122 49be 248d 8d3e
